Projet1_Navigation_Banana/Navigation_baseline/checkpoint3.pth (torch_old, 78282 bytes, 8 tensors)

fc1.weight f4 [64, 37]
00000000: c8db e83d 5fad 8d3d 78ad 6fbe 6c60 66be
00000010: fda3 e6be cba8 a73d 073f 07be 09dd 263e
00000020: 958b 263e 4535 633e 7be5 b53b 20ac 2abd
00000030: 4b3a 233d 5e94 c2be f8ee 32bd b208 4b3e
00000040: ee8a 55bd a2b5 0b3a 6c78 5ebe 4857 41bf
00000050: 40d4 463d 12c8 0c3e 0444 11bc 8f32 3d3e
00000060: 8b08 fe3d 9876 c7bd 5f1f 923e 4d49 83bd
00000070: 72ec c0bd e68f 333d 8bea 11be 21fa 2d3e
00000080: 5acb 27be 6c4e 4c3d 8da3 30be 25ef 0dbd
00000090: 95dc 9dbc 5a37 5f3e 4919 7f3d 7a09 773b
000000a0: 9abe 3ebc 6c80 93be 8fcb 2d3e 3c1a 9cbe
000000b0: 2f85 90bd 38e5 d0be 97ff 86bf 1f21 113e
000000c0: 3645 acbc cf08 f93b 7e53 723d e5ff b13d
000000d0: 6f0d 32bd 0ad9 f63c ee28 903d 4b30 183e
000000e0: 83cc 203e 89d2 d0bc d9e3 e1bd a726 fabd
000000f0: fd64 3cbc 6dd6 cc3c 4520 06be 2f2d 173e
00000100: e757 883c 72d7 053e b875 ed3d cc8c 05bd
00000110: 5417 6d3e d59b ca3d 4915 903d bea2 ee3d
00000120: 4d37 c9bc e29d 0c3c b9f3 2d3e d776 ad3d
00000130: cf2b a8bd 1208 813e 3ced 023f 539a 9ebe
00000140: 1b04 423a ef5e 933e acec 853d dfc7 26be
00000150: 87bc ae3d 7bbf 503d 9915 723d 903e 14be
00000160: 5d5f 1dbe 5a9c 8ebd f338 b23d dc0d 083e
00000170: 59b0 103e 9f9f 003e d3fa 4ebe 9c53 3ebe
00000180: 4723 793e 06fc 4e3e 1f99 7cbd 1579 28be
00000190: 8349 8b3e 9ec4 de3d 8420 b33d 386d d4bd
000001a0: 8cc4 3abe 51ef eabc 36a3 363c 01c2 3fbd
000001b0: d8e4 f5bc 5d26 503d 9a46 dcbc 61c4 d13c
000001c0: ffdb a7bd fa20 793e a802 d83c f31c 02be
000001d0: 2bfd cdbc 912e cebd 4a14 e33d 7e69 a63e
000001e0: 8062 8f3e 0285 0e3e e020 55be bd93 083e
000001f0: f94b 85bd a293 94be 6ba1 c5bc f98f 05bd
00000200: b7f0 7fbd 1b1f edbd a34a 99be be94 363c
00000210: 2948 44bc 37ce 013e 16d9 f03d dab7 2a3d
00000220: 0cb2 603d de47 bf3d 8c0a cb3c c9c3 8c3d
00000230: 7b6d 3b3e cbf5 543e 49e5 3c3e c9cd 513d
00000240: 58af 8ebe f810 ffbe c783 3c3d 5c03 c73a
00000250: 268a 75bd e854 fabd 130b eebd cbc6 52be
00000260: 44e9 73ba dce9 f03d 7031 cd3e 2fb4 cebd
00000270: f636 8fbd 78c4 c8bf 527e b7bd e008 ae3d
00000280: 2534 c1bd ae81 82bd 2470 b2bd caf0 16be
00000290: 4e7a f2bd b5bd 5f3c 81e0 1abd d495 df3d
000002a0: a75a 95bd 7926 47bc cef4 b5bc e06e a33d
000002b0: 6479 003d 1cee 7b3e 7124 2fbf b80e 263d
000002c0: 51a2 85bd 72e3 75bf 8d7e ffbc 3ead a03c
000002d0: e1fe 0a3e dbd5 083e eedc 283e 072f 4fbb
000002e0: 7241 2aba 9c63 e3bc e141 b3bc 445e 103d
000002f0: 132d 793d 85da 6f3e b903 d53d f6a3 163e
00000300: c74c 9a3d 87c2 cebd 8faa abbe 8848 04be
00000310: abc7 88bd 4bc9 4a3d 5af6 a7bd 50e4 df3d
00000320: bbc4 56bd 1400 cd3b 9ca4 4d3b 59e1 3fbd
00000330: 720d 3dbe c783 ad3c 114f a13d 9f23 233e
00000340: 4152 ff3d 3c4a 583e 48c9 0abd c02b 61b9
00000350: 6335 783d b5ff 873d 8904 3d3e 5ec9 4c3e
00000360: 7001 d1bd 3ebb 88be fb76 c7bd d1c5 b5bf
00000370: fcb6 993c 4840 a63b ec87 8b3d 15d2 063c
00000380: 80c1 c7bd 7a1a 5d3d d4eb 123e dbe4 58bd
00000390: bdc1 75be c3a2 2d3d c456 bcbb 9f6c b4bc
000003a0: c733 5ebe 6afe a23e d123 d2bd 3873 183e
000003b0: 31ce 603e 86cc 0abe 6262 ecbd 9d24 f53d
000003c0: abf1 a23d 9c25 9b3e aa26 a2bd e19a 273d
000003d0: 458c 123e 01f4 7bbe fa14 883e 4a2c 793c
000003e0: feb5 24be fe8a ddbd 25e0 d0bd 18e5 c6bd
000003f0: a51c 8b3d d869 bbbc e3a5 8e3d 59e9 21bd
0.11370045 0.069178335 -0.23406017 -0.2249772 -0.45046988 0.081864916 -0.13207637 0.16295256
0.16264184 0.2218829 0.005551038 -0.041668057 0.039850514 -0.3800382 -0.04368493 0.19827536
-0.052134447 0.00053294946 -0.21725625 -0.75523806 0.04854226 0.13748196 -0.008866314 0.18476318
0.12403973 -0.09739417 0.2853956 -0.064104654 -0.09420098 0.043838404 -0.14249627 0.16989948
-0.16386166 0.049879476 -0.1724989 -0.034651894 -0.01927022 0.21798459 0.062279973 0.0037694857
-0.011642123 -0.28808916 0.16972183 -0.30488765 -0.07056653 -0.4079988 -1.054675 0.14172791
-0.021029096 0.007599927 0.059161656 0.08691386 -0.043469843 0.03013279 0.07039057 0.14862172
0.15703015 -0.025491016 -0.110297866 -0.122144036 -0.011498687 0.02500459 -0.13098247 0.1476333
0.016643478 0.13070467 0.11594719 -0.032604977 0.2315343 0.09893004 0.0703531 0.11652134
-0.024562502 0.008582564 0.16987504 0.084699325 -0.08211481 0.2520147 0.5114324 -0.30977115
0.00074011245 0.28783366 0.06539282 -0.16287182 0.085320525 0.05096386 0.05910263 -0.1447699
-0.1536841 -0.069634154 0.087022685 0.13286537 0.14129771 0.1256089 -0.2021287 -0.18586582
0.24329863 0.20213327 -0.061669465 -0.16452439 0.27204522 0.108773455 0.08746436 -0.10372394
-0.18239039 -0.028678568 0.011147311 -0.046815876 -0.030016348 0.050817836 -0.026889134 0.025606336
-0.08196258 0.24328986 0.026368454 -0.12706356 -0.025145134 -0.100674756 0.11087854 0.3250236
0.28004837 0.13917926 -0.20813322 0.13337608 -0.06508631 -0.29018885 -0.024124822 -0.032608006
-0.062485423 -0.115781985 -0.29939756 0.011143861 -0.011980095 0.12676321 0.11760156 0.04167924
0.0548573 0.093398795 0.024785303 0.068732806 0.18303482 0.20796888 0.1844684 0.051221643
-0.27868152 -0.49817634 0.04602411 0.0015183496 -0.0599462 -0.12223226 -0.11623206 -0.20583646
-0.00093044736 0.11763355 0.4007678 -0.10092961 -0.06992905 -1.5684958 -0.089596406 0.084977865
-0.09433774 -0.06372391 -0.087127954 -0.14740291 -0.11839734 0.0136560695 -0.03781176 0.10917249
-0.07292681 -0.012155169 -0.022211459 0.07980132 0.031365767 0.2460255 -0.6841498 0.04054138
-0.065251 -0.9605018 -0.031188274 0.019613858 0.13573791 0.1336283 0.16490528 -0.0031613724
-0.00064947375 -0.027757458 -0.021882 0.03524615 0.060834 0.23423202 0.10401101 0.14710984
0.07534175 -0.10095697 -0.33528563 -0.12918293 -0.06678709 0.049508374 -0.08201285 0.10932219
-0.05243371 0.006256113 0.0031378632 -0.046845768 -0.1846216 0.021181 0.07876409 0.15931557
0.124668606 0.21122068 -0.033883363 -0.0002147397 0.06059779 0.06640569 0.18458761 0.1999869
-0.10205352 -0.26705354 -0.097394906 -1.4200994 0.018764012 0.005073581 0.068130344 0.008228798
-0.09753704 0.05398033 0.14347774 -0.05295263 -0.23999687 0.04239155 -0.005747648 -0.02202445
-0.21699439 0.31834728 -0.10260738 0.14887702 0.21953656 -0.13554582 -0.115422025 0.11969874
0.07956251 0.3030213 -0.07917531 0.04091919 0.14311321 -0.24604799 0.26578504 0.015208313
-0.1608505 -0.10817526 -0.10199002 -0.09711665 0.06792573 -0.022877619 0.06965234 -0.03952918

fc1.bias f4 [64]
00000000: aabe 063e a033 0f3a e495 1cbe e74b e5bc
00000010: 68cd 3b3e 401d 343b 7df4 02be 34b7 8e3d
00000020: a437 a73d bcdd 3ebe aa85 2b3e 8f58 253e
00000030: 20f8 083e b491 e53d 1e68 41bd 5534 a3bd
00000040: 4ff1 373d 11fb b83c ad12 d53c 47b8 debd
00000050: 48b8 1cbe d558 ad3c bb59 4f3c 9624 5fbd
00000060: 9ec6 51bd faa8 cb3d a3a1 1e3d 20ba 2abe
00000070: 9457 413e ac0d 263d cf2c 123d aed3 2ebe
00000080: faa8 ed3d fea6 6abc ef92 0cbe f0e4 de3c
00000090: 9378 99bd 177c 48bb 7ec5 453c c8ed 04be
000000a0: 57b8 40bd 6b0d 61bd 50e4 1fbe 385b 103e
000000b0: 1cc8 08bd fecb cabd f677 433c 31a7 d7bd
000000c0: f478 bbbd b7fc a03d 30bf c6bd 3156 1c3e
000000d0: 3c19 25bc 5ef9 9dbd a7e3 0fbe 6cf6 c13c
000000e0: ff26 aa3d 799b 5ebd 3182 07be 914d 6bbd
000000f0: c4bc 40bd 9ac5 533d 4fd6 e93b 08d0 143d
0.1315867 0.000546271 -0.15291554 -0.027990295 0.18340075 0.0027483255 -0.12788577 0.06968537
0.081649095 -0.18639272 0.16750208 0.16147064 0.13375902 0.11209431 -0.047218435 -0.07968966
0.044907864 0.022580655 0.026009882 -0.10874992 -0.15304673 0.021160522 0.012655671 -0.05447825
-0.051214807 0.09944339 0.038728368 -0.16672564 0.18881065 0.040540382 0.035687264 -0.17072937
0.11604495 -0.014322041 -0.13727926 0.027208775 -0.07493701 -0.0030591541 0.012071012 -0.12981331
-0.0470508 -0.054944437 -0.15614438 0.14097297 -0.033393964 -0.0990219 0.011930456 -0.10529936
-0.09153929 0.078607015 -0.09704435 0.15267254 -0.010076817 -0.07713579 -0.14051686 0.023677073
0.08308219 -0.05434749 -0.13233258 -0.05744702 -0.04705502 0.05170212 0.0071361433 0.036331207

fc2.weight f4 [128, 64]
00000000: 0973 01bd 4200 09b9 cb05 403c 5f1d 4d3e
00000010: 4516 293d 1187 14be 0d1e 85bd 73af 983c
00000020: 95a9 113d 6a4a ffbc 0e1f b8bd d25e f3bd
00000030: 87c3 f2bd fa2f 203e 76dc 883d ce3c f03d
00000040: 8235 453c 9939 093d d4be 793d d814 be3d
00000050: b69e 3bbe 0a69 6d3c 4099 8bbb ee6a a73d
00000060: 4210 59be d4dd 93bb aa93 ad3e 6eee e5bd
00000070: faaa 3b3d 67a1 063e 9351 d8bd 7b30 60be
00000080: dee0 b4bc 5519 263e 8e78 1b3e 374c 1e3d
00000090: a05d 67be f7bd c43d d416 fd3d c8a8 1bba
000000a0: 33ad b5be f45d 4a3d 3a1d e5bd cea5 c93c
000000b0: 286a aebb 1c05 c33d a2f2 77be a98e 693d
000000c0: f8d3 e7bb a50f 70bb 451d 54be 09ad 5ebe
000000d0: 260a be3c 3600 fdbd 3a47 313d 44ef 4d3c
000000e0: a384 edb9 dea6 1fbe 3682 79bd 1765 953d
000000f0: f041 653d d08f da3e 29bc 60be 560b 423c
00000100: 0468 3d3d aa6f d23d 2528 1cbf c767 5a3e
00000110: 620d 7f3e 9554 0c3e acd4 9abe e1ba a23e
00000120: fcc6 dcbd 9e01 a3be 1608 37bd 96e6 313e
00000130: 497e 02be 382c fd3c 78af d2bd 523f b3bc
00000140: efed 4e3d 678f e2bd fa51 73be 261b 153e
00000150: f53f c73c 1aa7 5bbe 2b75 043e 4382 64be
00000160: d421 813d 243e 67bd 2405 6c3d 308f 24be
00000170: f0cf 8e3b 3c50 733d 81cc 65bc b4ab 3dbe
00000180: bc7c 30bd 9c9f 063e 745c 95bc 06a4 b2be
00000190: e061 3ebd 42ee d63c 4e55 5c3e d093 00be
000001a0: 913c 8ebe da03 3b3d 70b9 663e 1634 d73b
000001b0: 93a7 86bb 87fb 94be 6a00 fcbd 6572 a3bd
000001c0: b4da 9cbb 39aa 85be 5d5a 143d 6b2b 473e
000001d0: 1607 37bd 9516 ed3d da07 cbbd 4b52 e43c
000001e0: f3b4 36be 608f d23d 5a50 853d 877a 883e
000001f0: 9721 0dbe 501d f6bd b187 d1bd a0e8 76bd
00000200: af4c ebbe cef3 0bbe 6a3c 9dbd 4f3a b3be
00000210: 1ba1 4dbe 4aa0 003e 63a3 78be 6863 8e3c
00000220: 3ed7 7c3c f682 d3bc 60ea babc 9b11 72bd
00000230: 791c a33d 1af7 953d 24fd 46be c545 afbc
00000240: 1dd8 90be 5f26 4b3e 3056 423c 0332 57bd
00000250: 42c3 61be 9292 f53d ae4e 1fbe b531 1c3e
00000260: 34f6 d0bd 1c12 a3be 4744 533c 6a8c 41bd
00000270: 964b 5bbe a10b 60bc 5260 59bd d489 6d3d
00000280: 8fa7 a9be 2910 f7bd 3fd3 56be d018 b3bd
00000290: df75 64bd 30a5 973d 6339 813d 73d0 63be
000002a0: fb87 1a3d acee 91be d134 02bd 8777 e6bd
000002b0: 717c 89bd b707 d7bd 2905 b5bc 3498 d0bd
000002c0: 3d08 943b ccba 6e3d 678a e8bd 495e ce3d
000002d0: 0acf a1be 8d03 febd de54 14be 46db fdbd
000002e0: 7d4f 13be 61e7 b0bd 70b5 2c3e cdb9 583d
000002f0: dc3b 01bc d8c5 0f3e 8981 91bb 483d 27be
00000300: 9a65 36be c961 78bd d69e 05be fbcd 48be
00000310: d600 0a3e 43cb 033c 4d25 57bd 0bb3 82bd
00000320: 4126 64bd e71a b83c da54 b1bd 4c50 623e
00000330: c022 8fbc c233 a33d c447 1cbd 0d52 8fbd
00000340: 95ab 8cbd dfdb 733d 96f4 273d bb62 cb3d
00000350: 6f62 fb3c b41c b23d 3e35 303e ff4b a8bd
00000360: 1d02 723e 8cf9 71bd a2b1 d6bd a510 183e
00000370: 976f 873e 79d2 2dbe a688 90bd 517a 17bd
00000380: 5e2c 113d 4051 9ebd 4ad5 59bc 147e 8d3d
00000390: ba18 12be ad06 b43d a295 7c3c 5921 2b3b
000003a0: da22 4abe 4800 803d 933c 813e 091a 8f3c
000003b0: 1101 91bd f1ed 8f3c c024 af3c 3413 803d
000003c0: b18c dc3b d446 4a3d 992f 87be d8e4 243e
000003d0: c425 0ebd c52b c5bc b3d4 d9bd 74bc b93c
000003e0: 58ee a0bd 9899 6dbd e608 42bb f27d 003d
000003f0: 53c9 0dbe af95 823e e147 3ebd f062 383e
-0.031603847 -0.00013065434 0.011720131 0.20030735 0.041281004 -0.14504649 -0.06499872 0.018638348
0.035562117 -0.031163413 -0.08990298 -0.1188332 -0.118537 0.15643302 0.066826746 0.117303476
0.012036683 0.033502195 0.060973004 0.092813194 -0.18322262 0.014490375 -0.004260212 0.08174692
-0.21197608 -0.004512528 0.3390172 -0.112271175 0.045817353 0.13147508 -0.10562434 -0.21893494
-0.022079881 0.16220601 0.15182707 0.038646903 -0.22594309 0.096065454 0.1235787 -0.0005937931
-0.35483703 0.049406007 -0.11187215 0.024615195 -0.0053227134 0.09522459 -0.24213651 0.057020817
-0.007074829 -0.0036630419 -0.2071429 -0.21745695 0.023198199 -0.12353556 0.043280818 0.012569252
-0.00045302985 -0.15590999 -0.060915194 0.07294672 0.055971086 0.42687845 -0.21946777 0.011843523
0.046241775 0.102752045 -0.60998756 0.2132865 0.24907449 0.1370414 -0.3024038 0.31783202
-0.10780141 -0.3183717 -0.044685446 0.17373118 -0.12743486 0.030904874 -0.10287374 -0.02188078
0.05051988 -0.11062508 -0.2376174 0.14561138 0.02432249 -0.21450463 0.12935321 -0.22315316
0.0630528 -0.056455746 0.05762209 -0.16070247 0.004358284 0.05940269 -0.014025808 -0.18522531
-0.043087706 0.13146824 -0.018232562 -0.34890765 -0.04648006 0.026236657 0.21516916 -0.12556386
-0.27780584 0.04565797 0.22531676 0.0065674884 -0.004109332 -0.2909815 -0.123047665 -0.079808034
-0.0047868136 -0.26106432 0.03621899 0.19450156 -0.044684492 0.11576573 -0.09913607 0.027871272
-0.17842464 0.10281253 0.065094665 0.2665598 -0.13782345 -0.1201731 -0.10230959 -0.060280442
-0.45956942 -0.13667223 -0.07677539 -0.35005423 -0.20080988 0.12561145 -0.24281077 0.017381385
0.015432177 -0.025819283 -0.022816837 -0.05909882 0.07964415 0.073225215 -0.19432503 -0.021395573
-0.2828988 0.19838856 0.011861369 -0.05253793 -0.22047141 0.11990847 -0.15557358 0.15253337
-0.102032095 -0.31849754 0.012894697 -0.04725305 -0.21415552 -0.013674648 -0.053070374 0.05799277
-0.3313565 -0.12063629 -0.20979021 -0.08744967 -0.055776473 0.07404554 0.06309774 -0.22247486
0.037727337 -0.28502405 -0.03178865 -0.11253267 -0.067131884 -0.10499518 -0.022097187 -0.101852804
0.0045175836 0.058283612 -0.11354523 0.10076577 -0.3160327 -0.12403021 -0.144855 -0.12395339
-0.14385791 -0.08637882 0.16866088 0.05291157 -0.007887807 0.14040315 -0.0044404906 -0.1633197
-0.17812195 -0.06064013 -0.13048872 -0.19609825 0.13476881 0.008044067 -0.052525807 -0.06381806
-0.055700544 0.022473766 -0.08658762 0.22100943 -0.017472625 0.079688564 -0.03815438 -0.06998072
-0.06868664 0.059535857 0.04100474 0.09930941 0.030686585 0.08696881 0.1720781 -0.0821762
0.23633619 -0.059075877 -0.104830995 0.148501 0.26452324 -0.1697482 -0.070573136 -0.036981884
0.035442702 -0.07730341 -0.013295481 0.06908813 -0.14267245 0.08790336 0.015416535 0.0026112406
-0.19739857 0.06250054 0.25241527 0.01746847 -0.070802815 0.017569514 0.021379828 0.06253663
0.006730639 0.049383953 -0.26403502 0.16102922 -0.034703985 -0.024068723 -0.10636272 0.02267287
-0.078579605 -0.058007807 -0.0029607355 0.03137011 -0.1384633 0.25504825 -0.046455268 0.18006492

fc2.bias f4 [128]
00000000: f11e 0d3c a89c 8dbd bee4 51bd 6e7a d2bd
00000010: 3c0d 8e3d 8021 9a3d e804 83bc 4747 aabd
00000020: 94cf 073e c48e 843e b67c dd3a f27f 96bd
00000030: 8bb4 82bd d0e5 10be 5069 d9bc d99c f0bd
00000040: 5201 9f3d 6987 8d3b d7d9 a93d 1a67 3b3b
00000050: a66e 2b3d 3e45 5cbb 46a2 edbd 7220 bebd
00000060: 6459 2dbd a092 f0bc 3aa6 213d a4d3 9c3d
00000070: 272a 033e b7d0 f63c 7c36 803b bd40 81bc
00000080: b564 f9bd 98c1 ef3d ee79 953d bbdb 903d
00000090: 71bd f53b 1d81 bdbd 9cd9 0abe 23e9 d1bd
000000a0: a588 6a3e 2525 a53c 79b4 5a3d 1640 033d
000000b0: ecb8 0fbd 1089 873d 40d1 44bd 8a96 e7bd
000000c0: 6ca7 9bbd 6d7a acbd 0ada 2e3e 26c4 91bd
000000d0: dec5 253d 00cd 09bd 0066 853c 8e7c 9b3d
000000e0: e643 66bd d209 8fbd 84e6 29bd 8a1a 03bd
000000f0: 3acb a2bd e8a1 5f3d b07e ae3c 62bf 0b3d
00000100: 7cbf fabc 71e7 983c 218a f43b bf66 33be
00000110: 384f 493c ec08 d23d dab5 b9bd 2a76 1abd
00000120: 785e afbb cc5b 873d 9ec8 103d abdc 22be
00000130: ec3b 463e 1652 bebb a812 32bd 5f75 e1bd
00000140: fced 21be b559 b93c f4e4 85bd 4ae8 8c3a
00000150: 35ac 1ebd 3b05 2a3e 1a41 a2bc 7892 f33b
00000160: b642 0abe 61cc f6bd 6042 89bd baca 4a3e
00000170: 91fb 5ebd 7ace b33d abfc febd c518 45be
00000180: 2290 00be 982a ba3d 02fb 4b3d 50b4 2ebe
00000190: 8d5e a5bd 83b1 2b3e 66bb 193d aa79 4f3c
000001a0: f85f 833d 6ff4 0e3e 8252 383e 8225 92ba
000001b0: a8b5 073c 2d92 54bd f76f 67bd 8320 e5bd
000001c0: 538e fabd 0b73 0a3e 5f01 033c a5e9 a73d
000001d0: babd 02be 76cb 1b3c da63 393e 78f2 413d
000001e0: 1fda cabd 4525 953c 08d0 883d 0b6f 1ebe
000001f0: 1080 85bc 4893 92bd cf9e d0bc e8c9 adbc
0.008613334 -0.069146454 -0.051243536 -0.10277258 0.06936118 0.07525921 -0.01599355 -0.08314376
0.13262779 0.25890172 0.0016898129 -0.073486224 -0.06382092 -0.14150167 -0.026539475 -0.11748666
0.07763924 0.0043191207 0.08293503 0.002859539 0.04185357 -0.0033610607 -0.11603217 -0.09283532
-0.042321578 -0.029366791 0.039465167 0.07657555 0.12809049 0.03012882 0.003912745 -0.01577794
-0.121774115 0.11706847 0.07298647 0.0707316 0.00749939 -0.09253142 -0.13559574 -0.102495454
0.22903688 0.020159313 0.05339477 0.03204354 -0.035088465 0.066179395 -0.04805112 -0.1130801
-0.076002926 -0.08421788 0.17075363 -0.071174905 0.040471904 -0.03364277 0.016283989 0.07592116
-0.056217097 -0.06984295 -0.041479602 -0.03200773 -0.07948919 0.054597765 0.021300644 0.034118064
-0.030608885 0.018665047 0.0074627553 -0.17519663 0.012286954 0.10255608 -0.090678886 -0.037710346
-0.0053518377 0.06609306 0.035347573 -0.1590449 0.19358796 -0.0058081253 -0.043474823 -0.11008715
-0.1581344 0.022625783 -0.0653781 0.001075038 -0.03873845 0.16603558 -0.019806433 0.007433232
-0.1350201 -0.12050701 -0.06702113 0.19803897 -0.05443913 0.08779617 -0.12450536 -0.1924773
-0.12554982 0.09090155 0.049799927 -0.17060971 -0.08074675 0.16766934 0.037532233 0.012663284
0.06414789 0.13960432 0.18000224 -0.0011150094 0.008283056 -0.051897217 -0.056503262 -0.11187842
-0.122341774 0.13520448 0.007995932 0.08198861 -0.12767687 0.009508958 0.18104497 0.047350377
-0.099048845 0.018206248 0.06680304 -0.15472047 -0.016296417 -0.07156998 -0.02546635 -0.02121444

fc3.weight f4 [64, 128]
00000000: 286b aabc 7aec 92bd 80d3 623a 17dd ab3c
00000010: 6e52 debd 0f29 de3c f0fb 513c 895a 9dbd
00000020: 83e0 7f3d 384a e13c a74d e63c 288a 10bd
00000030: df67 4b3c b662 273d 5a61 f7bc 67c2 1bbd
00000040: 8499 9abc 94c4 d4bd ead7 7e3d 6324 a1bc
00000050: 818e 2ebd f8ef 093c 0c85 65bd 5ba3 f9bc
00000060: d71e 88bd 643c c33c 8e6e f73c 3652 2dbd
00000070: 8915 063d 2aee 673d 988d aabd 2565 93bd
00000080: 9849 8f3b e728 54bd 63da 213d 9b5f 9e3d
00000090: e932 acbd 89f7 84bc 90b8 b93b 76d6 5f3d
000000a0: 0df2 90bd 7e5d 92ba 1fe2 9fbd 8b30 b3bd
000000b0: 6dc3 a03d 24df 063d 9d29 bbbd 5395 293d
000000c0: be7d 89bd b5a9 913d 7d1e 16bc 1e5a e7bc
000000d0: 3f19 babc c879 a0bc 8462 eabb 2f9c 78bd
000000e0: 3d36 c43c f096 7abd a155 efbb 70be bbbd
000000f0: 7006 53bd 504d 70bb a01f 023c 1442 a4bd
00000100: 98af c43c e353 353c fe57 36bd 6e8a 24bc
00000110: 5be1 65bd 4c56 e9bd d739 98bc 6306 353d
00000120: df96 0fbc 5ff4 9bbd 8dde 8c3d 7da0 12bd
00000130: 46d0 89bd 4003 ef3c d42e c6bd 1819 1c3d
00000140: 5f5a 673c ec87 d33c b77f cebd 418a b93b
00000150: 81a3 cfbc e3a1 42bd c937 3f3c f1ca babd
00000160: 0d67 81bd b4ef a4bd ea18 ffbc a707 bb3b
00000170: 7402 ee3c ccfa b93c d3d6 0ebd fd11 9dbc
00000180: bfef 813c fe7e 5dbd 1a58 c9bd cf19 8fbc
00000190: dbfe 80bd f4fb 1c3d df69 933b f643 133c
000001a0: 332d 453c 8641 d0bd d227 1dbd 620b 94bd
000001b0: d4c6 aebc ba89 7fbd 75af f4bb 56e8 25bd
000001c0: 903c df3c d990 99bd 6a5a 7fbd 4d83 fa3c
000001d0: 9f67 703d 4404 1cbc 9199 26bd 55c1 9ebd
000001e0: 1cf5 6e3d 446a 123c 3edd c3bc 486f 56bc
000001f0: bad8 cabc c181 063d c266 94bd 4d60 76bc
00000200: 6ab2 45be a962 813c ebd1 233e bf30 2abe
00000210: 120b 9fbe 7b95 0c3e 2cbb a6be 0d42 173e
00000220: 97f8 9b3d e27b eb3a e04e 733d a1ac b6bd
00000230: 45f7 2c3e 9d9c 013e 99ac 58bd 975f a43d
00000240: fc6c 5abe ada4 a13d 990f d53d 5602 3f3e
00000250: 7164 c23e aab1 633e c413 a1be de7e 15be
00000260: f844 6a3e f6fb 433e ef93 c0bd 3145 093e
00000270: 1f5d 0e3d 56fd 20bb a873 3fbe cb6b 0c3f
00000280: 6d39 693e 7ad2 ad3e 88e8 3ebe 6ce5 8bbe
00000290: 779d 45be eb3c a0bd 6ef9 07bd c558 92bd
000002a0: 11d5 bebe 49ee 3fbe c5fa 3fbe f59d 2abe
000002b0: d5ce 993d 5eda a8be 2061 71be 15da 5ebe
000002c0: 3ca0 80bd f90e 5a3e 3bdd 4fbe b907 913e
000002d0: ac9e 663e 5a80 603e 6c6e 973d 9a7f 903d
000002e0: c62a d3be 6ae7 473e 2df5 06be 36ba aebe
000002f0: 0c6b ea3a 654b c0bd a4da 3f3b bed4 253d
00000300: 789b 803e 0912 393e c6fe 903e 37ec 68be
00000310: 3893 b8be 0174 5f3d 6828 203e e886 a6bd
00000320: b9fd 053e 7047 2e3e 3bb5 8e3e 235d 3cbe
00000330: 09a8 73be e21d 373e 9861 f43d d50d ebbd
00000340: 1c1e b9bd 5694 203d 7f04 613d 4f54 01bd
00000350: cabd edbd 46f2 36be d2e3 2fbe 7369 5abe
00000360: 0145 0f3d 0337 8ebe b1e0 bd3d 3449 03bd
00000370: 59ce 86bd c648 b0bd 5b61 f2bc 1b40 0abe
00000380: 2c5f d1bd 8340 aa3d 12d7 1bbd e4cc 94bd
00000390: 5e14 003e 3bce 74be 5f6b 84be 4ad7 10be
000003a0: efe0 4fbd cd2f aa3c f707 6f3c 01b3 403d
000003b0: 6da3 5fbd dd3d 4b3e 8ce8 943d 1c46 e43d
000003c0: 5e23 ad3e d64f d83d c4b1 16be 9042 d5bc
000003d0: 504e 743d cf08 28be 1f88 bbbd bca4 553e
000003e0: 91bf bc3d bce8 75be 5d29 d13d 2bd8 e83d
000003f0: c49d e43d 2ab1 35bd d8ee 7fbe 1905 6ebe
-0.02080305 -0.071740106 0.0008652732 0.020979447 -0.10855566 0.027119188 0.012816414 -0.07683284
0.06246997 0.02750121 0.0281132 -0.035288006 0.0124149015 0.040865622 -0.030197788 -0.038027193
-0.01887203 -0.10389057 0.06221763 -0.01967067 -0.04261637 0.008419029 -0.056035087 -0.030473402
-0.06646507 0.023832507 0.030204084 -0.04231473 0.03273538 0.056623615 -0.08327788 -0.07197026
0.0043727867 -0.05179682 0.03951491 0.07733079 -0.08408148 -0.016231315 0.0056677535 0.054647885
-0.070774175 -0.0011166779 -0.07806801 -0.08749493 0.078497745 0.032927647 -0.091387965 0.041402172
-0.067134365 0.07112447 -0.009162542 -0.028241213 -0.022717116 -0.01958932 -0.0071528573 -0.060695823
0.023951644 -0.0611791 -0.007303909 -0.091671824 -0.05151981 -0.0036667176 0.00794211 -0.08020416
0.02400951 0.011067363 -0.04451751 -0.01004277 -0.05612312 -0.11393413 -0.018582268 0.044195544
-0.008763998 -0.076149695 0.06878386 -0.035797585 -0.06729178 0.029176354 -0.096769005 0.03810987
0.014120667 0.025821649 -0.100829534 0.005662233 -0.02534652 -0.04751767 0.011671015 -0.09120739
-0.063184835 -0.08053532 -0.03113981 0.0057076993 0.029053904 0.022702597 -0.03487284 -0.019173617
0.01586139 -0.054076187 -0.09831257 -0.017468361 -0.0629861 0.03832622 0.004498705 0.008988371
0.012034702 -0.101687476 -0.038368054 -0.072287336 -0.021335043 -0.062387206 -0.007467205 -0.040504776
0.027250558 -0.074983306 -0.062342085 0.030580187 0.05869257 -0.009522501 -0.040673796 -0.07751719
0.058339223 0.0089364685 -0.023909207 -0.013088055 -0.024761546 0.032838587 -0.07246162 -0.015037608
-0.19306341 0.015794115 0.15998046 -0.16620158 -0.31063133 0.13728897 -0.32564676 0.1477129
0.07615774 0.0017965997 0.059401393 -0.08919645 0.16891201 0.126574 -0.052898977 0.08026045
-0.21330637 0.078927375 0.10403366 0.18653235 0.37967256 0.22235742 -0.31460392 -0.14599177
0.22877872 0.19139084 -0.09403216 0.134053 0.034756776 -0.0024565062 -0.18696463 0.5485198
0.22775812 0.33949643 -0.18643391 -0.27323472 -0.1929835 -0.07824119 -0.03319686 -0.07145838
-0.37271932 -0.18743242 -0.18748005 -0.16661818 0.07510153 -0.329791 -0.23572206 -0.21762879
-0.06280562 0.21294774 -0.20299236 0.28326204 0.22521466 0.21923962 0.07394108 0.07055588
-0.4124357 0.19521871 -0.13179465 -0.34126443 0.0017884686 -0.0938938 0.0029274607 0.04048609
0.25118613 0.18073286 0.28319377 -0.22746359 -0.3604982 0.05455399 0.15640414 -0.081312
0.13085069 0.17019439 0.27872643 -0.18394904 -0.23794569 0.17882493 0.11932677 -0.114772476
-0.09038946 0.039203964 0.05493593 -0.031574544 -0.11608465 -0.17865857 -0.1717675 -0.21329288
0.034977917 -0.27776346 0.09271372 -0.032052234 -0.065823264 -0.086076304 -0.029587438 -0.13501017
-0.10223231 0.08313086 -0.038046904 -0.07265642 0.1250777 -0.23906796 -0.25863168 -0.14144626
-0.050751623 0.020774746 0.014589301 0.04704571 -0.054599214 0.19847818 0.07270917 0.11146185
0.33816046 0.105621025 -0.1471625 -0.026032716 0.059644997 -0.1640961 -0.091568224 0.20863622
0.09216226 -0.24014562 0.102129675 0.11369356 0.11162904 -0.04435841 -0.24993455 -0.23244132

fc3.bias f4 [64]
00000000: 26a9 e6bd 77d1 353d 8b67 883e 8fa4 52bd
00000010: 933b 4c3d a0dc 30be f1ca f63d 19dc 4fbd
00000020: 432a 2c3e 32ac ba3e 3719 6ebd 5aab bd3e
00000030: db82 fbbc 3712 35bd d270 52bd b1b2 6fbc
00000040: f75f f73d 2094 a73d 2e74 093d 1b9a 983e
00000050: abb7 2dbd 393f b23e b2b7 a23d 0263 a23e
00000060: ddaa 96bc 97fc 0abe fc78 92bc 9862 c63d
00000070: 22a2 b43d 92b3 353e 0cc4 c03e 8bbb cdbc
00000080: adb4 41bc 66a5 e6bd 9337 02bd b469 093b
00000090: 845c 8c3b 718c d6bd 4c0e 0cbd b92f 18be
000000a0: d49c 94bd 1ffd 073e 0f9c 46bc 270b 2c3d
000000b0: ee6d 023d d120 aa3e f214 c6bd dc51 f23c
000000c0: 0be2 8fbd f068 9a3e 6427 7f3e 54cf f5bd
000000d0: 399b d03e 0eb5 213d 3b65 51bd e60c 6ebd
000000e0: a2fc 273c 5760 bebd feed 99bd 2544 013e
000000f0: 2490 c73d 89a7 a13e 7ee9 163d 8ce9 0abd
-0.11262731 0.044389214 0.26641497 -0.051426467 0.049861502 -0.17271662 0.12050427 -0.05074701
0.16812997 0.364595 -0.058129515 0.37044793 -0.030702045 -0.044206824 -0.051377125 -0.014630006
0.12078851 0.081825495 0.033558063 0.29805073 -0.042411488 0.3481386 0.07945193 0.31716162
-0.01839202 -0.13572918 -0.017879955 0.09686774 0.08819987 0.17744282 0.37649572 -0.025113842
-0.011822862 -0.11262016 -0.03179128 0.0020967545 0.0042834897 -0.10476006 -0.034193322 -0.14861955
-0.07256475 0.13280152 -0.012122168 0.042002823 0.03184312 0.33228162 -0.09671964 0.02958005
-0.07025536 0.30158186 0.2491737 -0.12002435 0.40743425 0.039479308 -0.05112193 -0.05811777
0.010253103 -0.09295719 -0.075160965 0.12623651 0.097442895 0.31573132 0.03684377 -0.033914134

fc4.weight f4 [4, 64]
00000000: 51d0 9c3c 28b5 253e 24f4 243e 5748 8b3e
00000010: 82de d03e e5e2 96bd 0840 cc3d 4142 d33d
00000020: 6d8f 133e 6b8d 403e 1f93 39be 3868 293e
00000030: 84a9 42be 1f58 86bd a3e0 513e fecb 413e
00000040: 61f9 8c3e 7640 443e 6b3e 15bf bbe2 f33d
00000050: 3e7c ea3c 6851 1f3e 1907 c3be 9d35 f03d
00000060: e0d6 613e 3bf6 d8bd 44ba 833e 787a 0d3e
00000070: 516f 0d3e 257f 563e 7dba 1c3e 7b3a e4bc
00000080: 3f50 963e d10c ffbc 6693 a9be 033e fe3d
00000090: d1cd ec3c 29af ef3c 62d6 48be 78c0 6bbe
000000a0: 7b55 54bc 2f4d ff3d 499f a23e 63d8 b3be
000000b0: dce6 193e 3c80 4b3e b9f8 dcbc 6922 383d
000000c0: 1c9f cfbc e1bd 333e d808 863d c3ff 873d
000000d0: b2d4 1a3e 896a 413e 45f3 8dbe 8f68 83bd
000000e0: 1c6e a1bc 37d7 003d efa5 f33d 3950 0a3e
000000f0: 46f3 473e 7b30 183e 5fc5 cbbe 9409 4bbe
00000100: 76c1 bc3d 652f 283f 657e 353c 9122 553e
00000110: fd7e 723e 1f9c 11bd 9496 893d d937 c33e
00000120: b6db dd3c 710c 333e 2239 383d 6102 8a3d
00000130: ee4c 2abd c449 963e ede9 debe 20e2 3dbd
00000140: 352a 7a3e f1a5 9d3d 492e abbd d2fa 4a3e
00000150: a095 bd3b a582 4d3e 2b69 ac3e 0425 2d3e
00000160: 492c e23e 86d6 99bd d2b8 b73d 723a 3a3e
00000170: ec7c ba3d dd81 f33d f2fa 0a3e 4e56 25be
00000180: 3462 0bbd 945a 6fbd 549b d6be 270e 50be
00000190: 717a ba3d 10a4 5fbd 3162 9cbe 0d11 f1bd
000001a0: c444 01bf dcd2 003e 1b5e ac3e c3c7 4e3e
000001b0: eec9 ecbd 8c27 bb3d c729 6abd 3ed0 b2bd
000001c0: 60af 3a3e 340d 4e3e ac8d e03d acc2 833d
000001d0: 5e3c 0d3e fc83 193e 9671 0bbe 6687 2e3e
000001e0: 6225 ea3d dd15 85bd 8416 723c a8ef 643e
000001f0: da22 cd3d f10a 023e c3b1 82bc 7093 14bd
00000200: a338 69bc 3581 a1be c666 733d adc8 ad3e
00000210: bb01 d73d ee7a 7dbe b8d2 473e d9ce a7be
00000220: bc08 283e ea2a c23d ab9f bebe 9489 293e
00000230: df6d 69be cb78 59bd daf3 f5bd 8fc2 afbe
00000240: d2dc b23e 2d1c 623e bcdd b73e 928f 4e3e
00000250: a292 813d 6245 393e dbad ddbd 4bcd 423e
00000260: 185c c43e 5646 5bbe 2bfe 113f 7c78 69bd
00000270: 15cf b53c e4ce 8bbd 3d26 663e e3d0 34be
00000280: 9d02 d13d f8f9 a43d 6adb 393e 5f1b 0fbf
00000290: 1814 00bc e578 a63d 6539 0ebf bd12 b1bd
000002a0: 7e9d cfbe c640 c73d b92e e53d 0ccd 32be
000002b0: d994 22be f7d0 173e 8e2c 833b 2ae0 b1be
000002c0: 38fb 883e 4e1d 68ba 18f5 273e 7fe9 253e
000002d0: bc38 053e 83f5 01bf 261c e83c 50c4 843e
000002e0: ecb5 003e e2ac 443d a958 45be e0cf 753d
000002f0: 4da5 293e 70c2 343d edd3 0cbe e82c 25bf
00000300: bae6 de3d ddf3 be3e a1c7 153e 5cdf e1bd
00000310: e687 893e 5c1e 483e c33a 783e 7c89 89be
00000320: e352 a3bc 34c4 a33d a175 cb3e a748 473e
00000330: 7df8 d1bc 92b7 6ebe 39fe b03d 4da2 b3bd
00000340: edbd 923e d82d 663e 08f7 2dbe 6e35 d53c
00000350: 807e 6fbb be9e 213e 333f cabe d63b 5d3e
00000360: 3de0 edbb 0283 803e a7e9 e13c 0a84 823e
00000370: 44f1 953e 0b25 2e3d 1efc 223e df43 c13d
00000380: 916d 67be 3f69 a23d 7e8f 8cbe 9392 90bd
00000390: 568a 99be 6112 80bc a89e 4bbe 0a92 5e3e
000003a0: 68c9 81bd ff69 a63a 9321 95bc 1bf9 f4be
000003b0: ec4a 6abd a3cf 043e 2885 3ebd d773 d43d
000003c0: 3927 113e 4ac2 333e 1003 b53d d329 2dbd
000003d0: 43bf 4f3e ee6b 77be 5ed3 f8be fec3 e33c
000003e0: baa3 fe3d f5d6 c93c bc06 c33e 2308 d83d
000003f0: 95ef d7bb a03f 313e 7db6 8dbd ed7e 64bc
0.019142302 0.16182387 0.16108757 0.27203628 0.4079476 -0.073674954 0.099731505 0.10315371
0.14410181 0.18803947 -0.18122528 0.16543663 -0.19009978 -0.065597765 0.20495848 0.18925473
0.2753401 0.19165215 -0.5829837 0.1190848 0.028623696 0.15558398 -0.38091353 0.11728976
0.22054625 -0.1059384 0.25728047 0.1381625 0.13811995 0.2094694 0.15305515 -0.027859917
0.29358098 -0.031134041 -0.3312027 0.124141715 0.028906735 0.029258328 -0.1961303 -0.2302264
-0.012959833 0.124658935 0.3176215 -0.35126027 0.15029472 0.19873136 -0.026974069 0.04495469
-0.025344424 0.17552902 0.065446556 0.066405796 0.151202 0.18888296 -0.27724662 -0.06416427
-0.019705825 0.031455245 0.11896884 0.13507165 0.19526395 0.14862244 -0.3979902 -0.19827873
0.09216587 0.6569732 0.011077498 0.20813967 0.23681255 -0.03554928 0.067181736 0.38128546
0.027082305 0.17485215 0.04497636 0.06738735 -0.041577272 0.29353154 -0.43537846 -0.046358228
0.24430163 0.076976664 -0.083584376 0.19822243 0.005785659 0.20069368 0.33673987 0.16908652
0.44174412 -0.0751162 0.089707986 0.18186358 0.09105858 0.11890004 0.1357229 -0.16146204
-0.0340292 -0.05843599 -0.4191538 -0.20317899 0.09105385 -0.05459982 -0.30543664 -0.1177083
-0.50495553 0.12580436 0.33665547 0.2019339 -0.115619525 0.09138402 -0.05716875 -0.08731125
0.18230963 0.20122224 0.10964522 0.06433615 0.1379256 0.14991754 -0.13617548 0.17043838
0.114329115 -0.06498311 0.014775876 0.22357047 0.10016413 0.12699486 -0.015953904 -0.03627342
-0.014234695 -0.3154389 0.059424184 0.33942166 0.10498377 -0.24753925 0.19513977 -0.32775
0.16409582 0.094808415 -0.37231192 0.16556388 -0.22795819 -0.053093713 -0.120094016 -0.34328124
0.34934098 0.2208106 0.35911357 0.20171955 0.06326796 0.18092874 -0.10824176 0.19023626
0.38351512 -0.2141355 0.57028455 -0.05699967 0.022193471 -0.06826571 0.22475524 -0.17657809
0.102055766 0.0805549 0.18150106 -0.5590114 -0.007817291 0.081285276 -0.5555633 -0.08646152
-0.40549845 0.097291514 0.11190552 -0.17461032 -0.15877093 0.14825808 0.004003114 -0.34741336
0.26754165 -0.00088544644 0.1640209 0.16202353 0.13009924 -0.50765246 0.028333735 0.25931025
0.12569398 0.048016436 -0.19272102 0.0600127 0.16566963 0.044130743 -0.13752718 -0.64521646
0.10883851 0.37295428 0.14626934 -0.110289305 0.26861495 0.19542831 0.24241166 -0.26862705
-0.019936984 0.07996407 0.3973818 0.19461308 -0.025631184 -0.23312214 0.08642239 -0.08771191
0.28660527 0.22478426 -0.16988766 0.026026454 -0.0036543906 0.15783212 -0.39501342 0.21604857
-0.0072593973 0.2509995 0.027577234 0.25491363 0.29285634 0.042515796 0.15916488 0.094367735
-0.2260039 0.0793023 -0.27453226 -0.07059207 -0.29988354 -0.015633764 -0.19884741 0.21735397
-0.06337243 0.0012696384 -0.018204486 -0.47846302 -0.057200357 0.12969832 -0.046513706 0.10373657
0.14175119 0.17554584 0.08838475 -0.042276215 0.20287804 -0.24162266 -0.4859876 0.027803417
0.12433572 0.024638632 0.38091075 0.10548427 -0.0065898397 0.17309427 -0.069195725 -0.013946277

fc4.bias f4 [4]
00000000: e1f6 303e 016d 283e b1d7 4b3e a5f0 1a3e
0.17281677 0.16447832 0.19906498 0.15130861
