Projet1_Navigation_Banana/Navigation_loss/checkpoint.pth (torch_old, 78282 bytes, 8 tensors)

fc1.weight f4 [64, 37]
0	0x3e1791b8	0.14801681
1	0xbdf5685f	-0.11982798
2	0xbe1eaf4b	-0.15496556
3	0xbdbcd2ac	-0.0921987
4	0xbeb83da1	-0.3598452
5	0x3e386799	0.1800827
6	0xbda4e1e6	-0.08050899
7	0xbd27fbfa	-0.041011788
8	0xbda87c77	-0.08226865
9	0xbe9e8359	-0.30959585
10	0xbd980976	-0.074236795
11	0x3ccc49b9	0.024937497
12	0xbe41cbaa	-0.18925348
13	0xbe4c5406	-0.19953927
14	0x3d7639e0	0.060113788
15	0x3e1b4e95	0.15166695
16	0x3cdf6be2	0.027273122
17	0xbe0c7075	-0.13714774
18	0xbe05fdd1	-0.13085105
19	0xbe8f38f4	-0.2797314
20	0x3d593e80	0.05303812
21	0x3e6034d2	0.2189515
22	0xbe033833	-0.12814407
23	0x3df9b693	0.121930264
24	0x3e1cd6c9	0.15316309
25	0xbde09e96	-0.10967748
26	0x3eaa3e11	0.33250478
27	0xbe485b9c	-0.19566196
28	0x3cf2e48d	0.029649997
29	0x3d43794b	0.047723096
30	0x3bdc5c0b	0.0067248396
31	0x3e313e6b	0.17308967
32	0xbe956380	-0.29177475
33	0xbe1079aa	-0.14108911
34	0xbe526ff9	-0.20550527
35	0xbe420a0f	-0.1894915
36	0xbcdec4b6	-0.027193408
37	0x3de9a0df	0.11407637
38	0x3c4589f1	0.012056814
39	0x3db5e617	0.08881777
40	0x3dfa305c	0.12216255
41	0xbd436196	-0.047700487
42	0xbe21275e	-0.15737674
43	0xbdaf1d1f	-0.08550476
44	0xbd01a69d	-0.031653035
45	0x3d9b4cd2	0.07583012
46	0x3df0903b	0.1174626
47	0x3dfb226b	0.12262424
48	0xbce8716d	-0.028374398
49	0x3d6445fb	0.0557308
50	0x3da1f058	0.0790717
51	0x3dd87861	0.105698355
52	0x3b388ccb	0.002816009
53	0x3de90d1a	0.11379452
54	0x3d896526	0.06708746
55	0x3c42add7	0.011882267
56	0x3dfabf58	0.12243527
57	0x3e06b9af	0.1315677
58	0xbe8d2fcc	-0.2757553
59	0xbeb3eb6c	-0.3514055
60	0xbe8bab1e	-0.2727899
61	0xbf8fdb90	-1.123888
62	0xbe32114a	-0.17389408
63	0x3d9b779e	0.075911745
64	0x3e102b8a	0.14079109
65	0x3d75e9d4	0.06003745
66	0x3e1f9a1c	0.15586132
67	0x3e2230c0	0.15838909
68	0x3d0c6012	0.034271307
69	0x3d8c1442	0.06839801
70	0xbe63a553	-0.22231035
71	0xbf1b7e4b	-0.6073958
72	0xbc987f37	-0.018615348
73	0x3cd64dcb	0.026160141
74	0xbdc05c51	-0.09392608
75	0x3e88ed0e	0.26743358
76	0x3dab71f8	0.08371347
77	0xbb47b842	-0.0030474816
78	0xbe761517	-0.24031483
79	0xbf062d43	-0.52412814
80	0x3da66676	0.081250116
81	0x3eb06291	0.344502
82	0xbe45961d	-0.19295545
83	0xbef73a58	-0.482867
84	0xbd5443e7	-0.05182257
85	0xbd67e809	-0.05661777
86	0x3dc5cf10	0.09658635
87	0xbcd03e63	-0.025420373
88	0x3e47d9fa	0.19516745
89	0xbe903538	-0.28165603
90	0x3e45ff1e	0.193356
91	0x3e2e5b1c	0.17026943
92	0xbe430d84	-0.19048125
93	0xbe5c8dc0	-0.21538448
94	0xbdfb754a	-0.122782305
95	0xbceb0a19	-0.028691338
96	0x3e0165f5	0.1263655
97	0xbd813c39	-0.06310315
98	0xbe26affa	-0.16278067
99	0xbf5acd02	-0.8546907
100	0x3eb7b8d4	0.358832
101	0x3eb6955d	0.3566083
102	0xbe3947f3	-0.18093853
103	0xbf8d0d43	-1.1019672
104	0xbe9a70d0	-0.30164194
105	0x3dabd928	0.08391029
106	0x3d54ddd7	0.051969375
107	0xbe6079b2	-0.21921423
108	0xbdcb669a	-0.09931679
109	0x3d2c0f4d	0.04200678
110	0xbc83ff4b	-0.016112944
111	0x3e30026d	0.17188425
112	0xbd06141c	-0.03273402
113	0x3e62bfe4	0.22143513
114	0x3cca2c77	0.024679406
115	0xbe71b6e4	-0.23604923
116	0x3d1a8332	0.037722774
117	0x3ca0f6d5	0.019648949
118	0x3c858cbf	0.016302465
119	0x3e3aa8dc	0.18228477
120	0x3ed44e5c	0.41466033
121	0x3e620324	0.2207151
122	0xbe41b062	-0.18914941
123	0x3d05e92c	0.032693073
124	0xbeb5e3f4	-0.35525477
125	0xbf54d8c0	-0.83143234
126	0x3d2ba66b	0.041906755
127	0xbccbb0bc	-0.024864547
128	0xbd48ed95	-0.0490547
129	0xbeaf66e7	-0.34258196
130	0xbe3fcc60	-0.18730307
131	0x3cdefb45	0.027219424
132	0xbda696ce	-0.081342325
133	0x3db72702	0.08942987
134	0x3e0262c1	0.12732984
135	0xbe49ecd8	-0.19719255
136	0x3e3885b1	0.18019749
137	0xbd78df87	-0.060760047
138	0xbd539153	-0.051652264
139	0x3d32f72e	0.04369276
140	0xbe1d9ddc	-0.1539225
141	0x3d9014e3	0.07035234
142	0x3e8d20bd	0.2756404
143	0x3ceb678f	0.028735904
144	0xbe8b295a	-0.27179986
145	0x3de9abf3	0.1140975
146	0x3e3d85b1	0.1850803
147	0xb90a7d98	-0.00013207493
148	0xba8c8bfe	-0.0010722873
149	0xbe2baf30	-0.16766047
150	0xbe63c835	-0.22244342
151	0xbdb57b7e	-0.08861445
152	0xbdf22f28	-0.118254006
153	0x3d8823f7	0.06647485
154	0x3d4b976b	0.04970495
155	0xbe10fcee	-0.14158985
156	0x3d20f81e	0.039299123
157	0xbfa87661	-1.3161126
158	0xbd508bc0	-0.050914526
159	0xbdc85bc6	-0.097831294
160	0xbc989a72	-0.018628333
161	0xbe0a0ff9	-0.13482656
162	0xbe4c8336	-0.19971928
163	0xbe07c626	-0.13259181
164	0xbe4458b1	-0.19174458
165	0x3d91444a	0.07093103
166	0xbd11d897	-0.035606947
167	0x3db18602	0.08668138
168	0xbd4d8e1a	-0.050184347
169	0x3cea73a9	0.028619604
170	0x3dced50a	0.10099228
171	0xbe850a61	-0.2598448
172	0x3e3f8295	0.18702157
173	0x3e523dd3	0.20531397
174	0xbea39998	-0.3195312
175	0x3d25bb0e	0.040461592
176	0xbe8fdb75	-0.2809712
177	0xbf6759c4	-0.90371346
178	0x3da2de40	0.07952547
179	0xbe0eabdf	-0.13932751
180	0x3dd8f8fd	0.10594366
181	0xbdb34132	-0.087526694
182	0xbdda1e64	-0.10650328
183	0x3d1c358f	0.038137015
184	0x3c5e2934	0.013559628
185	0x3e11dffe	0.14245602
186	0xbe4631b9	-0.19354905
187	0xbcef77fa	-0.029232014
188	0xbd7c59ea	-0.061609186
189	0xbce166d4	-0.027514853
190	0x3e7d8193	0.2475646
191	0x3e2371cc	0.15961379
192	0xbec2a4bf	-0.38016316
193	0xbea47618	-0.32121348
194	0xbf07f04e	-0.5310105
195	0xbd8c3686	-0.06846337
196	0xbe1939f8	-0.1496352
197	0xbb687191	-0.0035468081
198	0xbd64da29	-0.055872116
199	0xbe1894dc	-0.14900535
200	0x3d0bc01f	0.034118768
201	0x3d7524c8	0.05984953
202	0xbe220441	-0.15821935
203	0xbde43c62	-0.111443296
204	0xbdb5494c	-0.08851871
205	0x3e2c2a66	0.16813049
206	0xbdca28d7	-0.09871071
207	0x3e40961c	0.18807262
208	0xbe01f92d	-0.1269271
209	0x3d51312d	0.05107229
210	0x3d5f342e	0.05449312
211	0x3d9a5619	0.07535953
212	0xbe01db78	-0.12681377
213	0xbea43af9	-0.32076243
214	0xbe2d580a	-0.16928115
215	0x3e0a4e3d	0.13506408
216	0xbe1bd111	-0.15216471
217	0xbe5d63f4	-0.2162016
218	0xbc3a3fdb	-0.011367763
219	0xbeb7f019	-0.35925367
220	0x3e7edabc	0.24888128
221	0x3e1a2cf4	0.15056211
222	0x3e054bf6	0.13017258
223	0x3ba6189a	0.0050688507
224	0xbd880fec	-0.06643662
225	0xbc9b9c03	-0.01899529
226	0xbe07eabb	-0.13273136
227	0x3d2b78d4	0.041863278
228	0xbd9e86e3	-0.07740571
229	0xbd78bae8	-0.060725123
230	0x3caefaf8	0.021359906
231	0xbac2bee3	-0.0014857914
232	0x3e005b66	0.12534866
233	0x3d982ca9	0.07430393
234	0x3dece88f	0.115677945
235	0x3dbf2552	0.0933329
236	0x3dd8b858	0.10582036
237	0x39d47332	0.00040521618
238	0xbdc5a38b	-0.09650334
239	0xb9f7faaf	-0.00047298285
240	0x3d972f60	0.07382083
241	0xbcd9c68b	-0.02658393
242	0xbd309964	-0.043115035
243	0x3d0c90b5	0.03431769
244	0x3dca2066	0.09869461
245	0xbd58dbe6	-0.052944086
246	0x3e9fc22c	0.3120283
247	0xbc55f64c	-0.01305921
248	0xbbf8381f	-0.0075750495
249	0xbd880cef	-0.06643092
250	0xbbf0a97f	-0.0073444243
251	0x3dc2f776	0.09519856
252	0x3ebc6c5c	0.36801422
253	0xbe5ccebf	-0.21563242
254	0xbeb693c3	-0.35659608
255	0xbf042e8c	-0.51633525

fc1.bias f4 [64]
0	0x3e1323e2	0.14369157
1	0xbae0c63b	-0.0017148921
2	0xbdcb3e8a	-0.09924038
3	0xbd0cf07b	-0.034409028
4	0x3e33d4a3	0.17561583
5	0xbd0abd76	-0.03387209
6	0xbd2cc041	-0.042175535
7	0x3d510fbb	0.051040392
8	0x3cab79b5	0.020932058
9	0xbe2874dd	-0.1645083
10	0x3d71237a	0.058871724
11	0x3dacd792	0.08439554
12	0x3e5f131b	0.21784632
13	0x3d89eebf	0.0673499
14	0xbd34ca69	-0.044138346
15	0xbc82a890	-0.015949517
16	0x3d833f38	0.064085424
17	0xbca8900e	-0.020576503
18	0x3da79e6a	0.08184512
19	0xbd82bbf2	-0.06383504
20	0xbdcb20cf	-0.09918367
21	0x3dcb6d3b	0.099329434
22	0x3c7ccc8a	0.015429625
23	0xbd8dbaee	-0.0692042
24	0xbe00fc32	-0.12596205
25	0x3e0f3015	0.13983186
26	0xbd2df109	-0.042466197
27	0xbdd91d96	-0.10601346
28	0x3e0f499d	0.13992925
29	0x3dca2bad	0.09871612
30	0xbd96428b	-0.07336911
31	0xbd7e2dca	-0.062055387
32	0x3dba7088	0.09103495
33	0x3d815cba	0.06316514
34	0xbdcb2e04	-0.09920886
35	0x3d82ae3c	0.06380889
36	0xbdc95a83	-0.09831717
37	0x3d34b191	0.044114653
38	0xbd7c2401	-0.061557774
39	0xbe02fc10	-0.12791467
40	0xbd3fe36c	-0.046847746
41	0x3c6ab2ea	0.014324883
42	0xbdee2df0	-0.11629856
43	0x3e3726b4	0.17885858
44	0x3c0560d2	0.00814076
45	0xbdc8e190	-0.09808648
46	0xbbaa181e	-0.0051908633
47	0xbdb18156	-0.08667247
48	0xbdeea636	-0.11652796
49	0x3de8921f	0.113559954
50	0xbe07d190	-0.13263535
51	0x3d891cf4	0.066949755
52	0xbd3daf30	-0.04630965
53	0xbd4f8c02	-0.05067063
54	0xbe598cb6	-0.21245083
55	0x3ca440af	0.020050375
56	0x3d090fa6	0.03346219
57	0x3cf58f88	0.029975668
58	0xbe0027e3	-0.12515216
59	0xbe2feaf7	-0.17179476
60	0x3a5d3ac4	0.0008439238
61	0xbb057b3d	-0.0020367645
62	0xbc1cf862	-0.009580703
63	0x3d8eb368	0.06967813

fc2.weight f4 [128, 64]
0	0x3c27a241	0.010231555
1	0x3ddb51a0	0.10708928
2	0x3ea1f4da	0.3163212
3	0x3d79028b	0.06079344
4	0xbd31602a	-0.0433046
5	0xbd4f73a4	-0.050647393
6	0x3e9bf961	0.30463699
7	0xbde12d7b	-0.10995003
8	0x3e136e45	0.14397533
9	0xbd75bf6a	-0.059997
10	0xbdb11273	-0.08646097
11	0xbe477e95	-0.19481881
12	0x3d8219dc	0.063525885
13	0xbbba19e4	-0.005679356
14	0xbd2a9465	-0.041645426
15	0xbe12ab71	-0.14323212
16	0xbe53a1e1	-0.2066722
17	0x3dd40f1f	0.103544466
18	0x3dd8937e	0.10575007
19	0x3e34187d	0.17587467
20	0xbe81c32b	-0.25344214
21	0xbdd354cc	-0.10318908
22	0x3df2eff9	0.118621774
23	0xbdadfa24	-0.08494976
24	0xbda45ad3	-0.08025136
25	0xbd7c7419	-0.061634157
26	0xbe273d86	-0.16332063
27	0x3e097700	0.13424301
28	0xbcc60ec1	-0.024176957
29	0x3e823b79	0.25436
30	0x3d3dc035	0.04632588
31	0xbd68a29c	-0.0567957
32	0x3d9b452f	0.07581555
33	0xbd9c839b	-0.07642289
34	0x3d917abb	0.07103487
35	0xbd3d0b81	-0.04615355
36	0xbdb095ec	-0.08622345
37	0x3d343e4c	0.044004723
38	0x3db5fca9	0.08886082
39	0xbdc6d6b0	-0.09708917
40	0xbdf19067	-0.11795121
41	0xbc317f42	-0.010833563
42	0x3e186f46	0.14886197
43	0xbcfc7ca0	-0.030821145
44	0xbca939dc	-0.020657472
45	0xbb5db496	-0.0033829561
46	0xbd92f328	-0.071752846
47	0x3da49229	0.0803569
48	0xbe532022	-0.20617726
49	0xbd1bb1b9	-0.038011286
50	0x3da76f1f	0.081754915
51	0xbdc2bb9b	-0.09508439
52	0xbd4a7808	-0.049430877
53	0xbecca431	-0.39969018
54	0x3e05ddf7	0.13072954
55	0x3c708bc1	0.014681757
56	0xbe654cc6	-0.22392568
57	0x3ddc95a1	0.10770727
58	0x3c47b36e	0.012188775
59	0x3c3a3d08	0.01136709
60	0x3cdb1234	0.026742078
61	0xbb195a74	-0.0023399862
62	0xbdce2df5	-0.10067359
63	0xbc8ddf96	-0.017318528
64	0xbd46b74f	-0.04851466
65	0x3dcdcced	0.10048852
66	0xbba929ac	-0.0051624384
67	0x3e2ad176	0.16681466
68	0x3d67f16d	0.056626726
69	0x3dd4febc	0.10400149
70	0xbe9ed9f1	-0.3102565
71	0xbd4e687f	-0.050392624
72	0xbdc94392	-0.09827341
73	0xbe0fd87f	-0.1404743
74	0x3dc8c33e	0.098028645
75	0x3d98de6d	0.07464299
76	0xbe1e2c10	-0.15446496
77	0x3dd64431	0.10462225
78	0x3d9249a1	0.0714295
79	0x3d7ae5eb	0.061254423
80	0x3e10084d	0.14065666
81	0x3de81c34	0.11333504
82	0xbd585b96	-0.05282172
83	0xbdf090fe	-0.11746405
84	0xbdd9da99	-0.10637397
85	0xbd9eac26	-0.077476785
86	0x3d99e1ae	0.07513748
87	0xbe2bb12a	-0.16766801
88	0x3d9a04cc	0.07520446
89	0x3d854aee	0.06508432
90	0xbe232334	-0.15931398
91	0xbe2c2d23	-0.16814093
92	0x3db0cac8	0.086324275
93	0xbe311a52	-0.17295197
94	0x3def1e2b	0.11675676
95	0xbe5e6971	-0.2171991
96	0xbdf4af6f	-0.11947524
97	0x3dcdcd9e	0.10048984
98	0x3de03d3e	0.10949181
99	0x3d02359d	0.03178941
100	0xbd8436a2	-0.06455733
101	0xbd5b31d1	-0.053514306
102	0x3e4afff3	0.198242
103	0xbe49d6ec	-0.19710892
104	0xbd8c74ca	-0.06858213
105	0x3d059a19	0.032617662
106	0xbd30ed9e	-0.04319536
107	0xbba7f898	-0.00512607
108	0xbe23e244	-0.16004282
109	0xbdc4a4c4	-0.09601739
110	0xbde331c8	-0.110934794
111	0xbdc6f6f1	-0.09715069
112	0xbd901219	-0.07034702
113	0xbe3ce885	-0.18448074
114	0xbd84db26	-0.06487112
115	0x3e430f74	0.19048864
116	0x3d9f602b	0.077820145
117	0xbde6191f	-0.1123526
118	0xbddee46d	-0.108834125
119	0x3c0244cd	0.007950974
120	0xbe41de83	-0.18932538
121	0x3d0d49a9	0.034494076
122	0x3e257696	0.16158518
123	0x3da3a8d9	0.079911895
124	0xbeb70eac	-0.3575338
125	0xbd7f95e3	-0.062398802
126	0xbc9e5802	-0.019329075
127	0xbe725e8d	-0.23668881
128	0xbe0fbeac	-0.1403758
129	0xbd18cd7d	-0.037305344
130	0x3ca1ad5f	0.01973599
131	0xbe410af8	-0.1885184
132	0x3dcdabfc	0.10042569
133	0x3c5ed2c5	0.013600056
134	0xbe8c8a8f	-0.27449462
135	0x3e0cb8ee	0.1374242
136	0xbe37dcfd	-0.17955394
137	0xbc2462d6	-0.01003333
138	0x3dc4e8db	0.09614726
139	0xbda544c1	-0.080697544
140	0x3dbe26ac	0.0928472
141	0x3e691f06	0.22765741
142	0x3dd0f54e	0.10203038
143	0xbd7009c1	-0.058603052
144	0xbe6efadd	-0.23337884
145	0x3d00a390	0.031405985
146	0x3d6a814b	0.05725221
147	0xbd98b1dc	-0.07455799
148	0x3d9cc713	0.07655158
149	0x3cb2c9c5	0.021824727
150	0xbe3d593d	-0.18491073
151	0x3df5d1e7	0.12002926
152	0xbe1b2c57	-0.15153633
153	0xbdb9b6ca	-0.09068067
154	0x3c9cc072	0.019134734
155	0xbc965d14	-0.01835493
156	0xbd569cf8	-0.05239579
157	0xbd896736	-0.06709139
158	0x3df609d5	0.12013594
159	0xbc9856f3	-0.018596148
160	0xbd81df5b	-0.0634143
161	0xbe83db7a	-0.25753385
162	0xbe66082c	-0.22464055
163	0x3e1593a9	0.14607109
164	0x3eb32900	0.34992218
165	0x3e3b0bb3	0.18266182
166	0x3e11ec62	0.14250329
167	0xbe1e8a0a	-0.15482345
168	0xbdcd62ed	-0.10028634
169	0xbe4a62e6	-0.1976429
170	0xbd896f83	-0.06710722
171	0xbe0eb70e	-0.13937017
172	0x3e8bb7a2	0.27288538
173	0xbe541174	-0.20709783
174	0xbdbc31cf	-0.09189188
175	0xbdfc8b9d	-0.123313166
176	0xbe7ce9bf	-0.24698542
177	0xbbe7f85f	-0.0070791687
178	0xbe3e7cce	-0.18602297
179	0xbe19f2cd	-0.15034027
180	0xbe761ca6	-0.24034366
181	0x3f023a1e	0.5086993
182	0xbdd2e608	-0.10297781
183	0xbd463390	-0.048389018
184	0xbd952078	-0.072815835
185	0xbe891d0d	-0.26779976
186	0x3c7c2bd0	0.015391305
187	0x3dc4f623	0.09617259
188	0x3e6a3d40	0.22874928
189	0x3f0ea8b0	0.55726147
190	0x3e15b30e	0.14619085
191	0x3d5ad486	0.053425334
192	0x3d89fedb	0.06738063
193	0xbe7ee06c	-0.24890298
194	0x3dea1e18	0.11431521
195	0xbeb3eb26	-0.35140342
196	0x3e1e54e8	0.15462077
197	0x3b1ae215	0.002363329
198	0xbe8609e0	-0.2617941
199	0xbe521e05	-0.20519264
200	0xbe75583f	-0.23959444
201	0xbe8b94d8	-0.27261996
202	0xbe3caa21	-0.18424274
203	0x3ed388cd	0.41315308
204	0xbf0000f7	-0.5000147
205	0x3d3769ad	0.044778515
206	0x3d4f2412	0.05057151
207	0x3c98cd91	0.01865271
208	0x3d7ac193	0.061219763
209	0x3e037733	0.1283844
210	0x3d98473c	0.07435462
211	0xbdb63472	-0.08896722
212	0x3dad416b	0.08459743
213	0x3dc76dd4	0.09737745
214	0xbd90388b	-0.07042035
215	0xbe1d3855	-0.1535352
216	0x3f19ec56	0.60126245
217	0x3d88b8f3	0.06675901
218	0xbdf41e0d	-0.11919794
219	0x3dc02067	0.0938118
220	0x3eb749a9	0.35798386
221	0xbe8e7eca	-0.27831107
222	0x3cf738af	0.030178396
223	0xbde268f8	-0.110551775
224	0xbe120723	-0.14260535
225	0xbd95bebe	-0.07311772
226	0xbd5c0429	-0.053714905
227	0x3b44653b	0.0029967565
228	0xbeae3865	-0.340274
229	0xbd39ef1c	-0.045394048
230	0xbca1aeca	-0.019736666
231	0xbdded169	-0.108797856
232	0x3cd11deb	0.025526961
233	0x3e987c2d	0.2978224
234	0xbd798b7c	-0.06092404
235	0xbe769a3d	-0.24082275
236	0x3da668bf	0.081254475
237	0x3beb9256	0.0071890755
238	0x3de4ce80	0.11172199
239	0xbd881406	-0.06644444
240	0x3d92a101	0.07159615
241	0x3e2bd86a	0.16781774
242	0xbdee386e	-0.11631857
243	0x3f422782	0.75841534
244	0x3e9b91db	0.30384716
245	0x3bec2b90	0.0072073415
246	0xbdcbebaf	-0.099570625
247	0xbd7297ce	-0.059226803
248	0xbe19dafa	-0.15024939
249	0xbcbfea6c	-0.02342721
250	0x3d46afea	0.04850761
251	0x3e41cea8	0.1892649
252	0xbea21bcf	-0.3166184
253	0xbcff7a0e	-0.03118613
254	0xbe91a310	-0.2844472
255	0xbe4aedd1	-0.19817282

fc2.bias f4 [128]
0	0x3dc4734b	0.09592303
1	0x3c7c9196	0.01541557
2	0xbd3cdc10	-0.046108305
3	0xbe20ddc3	-0.15709595
4	0x3d2f1efd	0.042754162
5	0x3d0f6f58	0.035018295
6	0xbdae634c	-0.08515033
7	0xbd1f18b3	-0.038841914
8	0xbd2d23db	-0.042270523
9	0x3d944125	0.07238988
10	0xbc9ad83f	-0.018901942
11	0xbe068e8d	-0.13140316
12	0xbdcedea4	-0.10101059
13	0xbe2caea1	-0.1686349
14	0xbdc250f9	-0.094881006
15	0xbcdca698	-0.026934907
16	0x3d7391e4	0.059465304
17	0xbd82a703	-0.06379511
18	0x3e1a19ec	0.15048951
19	0xbc580100	-0.013183832
20	0x3da477ee	0.08030687
21	0x3c82a92e	0.015949812
22	0xbe3e8b4b	-0.18607824
23	0xbe26ace7	-0.16276895
24	0xbdb4d0a8	-0.088288605
25	0x3ab17fd3	0.0013542123
26	0xbd893a81	-0.06700612
27	0x3e0f422c	0.13990086
28	0x3d8694b2	0.0657133
29	0x3dd2aea7	0.102872185
30	0x3c6bd5db	0.014394249
31	0xbcc81a5f	-0.024426637
32	0xbe101f05	-0.14074333
33	0x3e0e3f97	0.13891445
34	0x3c7e8cf6	0.015536537
35	0x3ca17606	0.019709598
36	0xbe0160ba	-0.12634555
37	0xbd55f24e	-0.052233033
38	0xbdb32ff3	-0.0874938
39	0xbd7ce20a	-0.061739005
40	0xbc90529b	-0.017617514
41	0x3d654e41	0.055982832
42	0xbd9d0a55	-0.07667986
43	0x3b0420e1	0.00201612
44	0xbd12ca6c	-0.035837576
45	0xbc3ba3d1	-0.011452631
46	0xbdfb878a	-0.122817114
47	0xbe44b9d4	-0.19211513
48	0xbdcd2fcc	-0.10018882
49	0xbd788872	-0.060677
50	0x3da7a8c0	0.081864834
51	0xbe12d45d	-0.14338823
52	0x3e5b0186	0.213873
53	0xbe25c212	-0.16187313
54	0xbd47c277	-0.04876944
55	0x3e382371	0.1798227
56	0xbd968555	-0.0734965
57	0xbe6900d9	-0.2275423
58	0xbd464ce2	-0.048413165
59	0xbd860e90	-0.06545746
60	0x3dc09d60	0.09405017
61	0xbd03fbb4	-0.032222465
62	0xbd13ed50	-0.03611499
63	0x3dd40d82	0.10354139
64	0xbe2fadc7	-0.17156135
65	0xbc126093	-0.008934158
66	0xbd52044a	-0.05127362
67	0xbe283c93	-0.16429357
68	0xbc097856	-0.008390507
69	0xbd0d090b	-0.034432452
70	0xbe398ca7	-0.18120061
71	0x3cbc8a48	0.023015156
72	0xbe291cef	-0.16514944
73	0xbc731b0a	-0.01483799
74	0xbd87c61f	-0.066295855
75	0xbd84b8ab	-0.06480535
76	0x3e006141	0.125371
77	0xbdf44adb	-0.1192834
78	0xbe5c0d2d	-0.21489401
79	0xbe2be12e	-0.16785118
80	0xbe712420	-0.23548937
81	0xbd5e7fba	-0.05432103
82	0xbe36f962	-0.1786857
83	0x3ccf797c	0.025326483
84	0x3dc04fd6	0.093902275
85	0x3da46037	0.08026164
86	0xbc13607b	-0.008995171
87	0xbd0b1302	-0.033953674
88	0xbe688f2f	-0.2271087
89	0xbde94d73	-0.113917254
90	0xbe21a216	-0.15784487
91	0x3dbbb866	0.091660306
92	0xbd05401c	-0.032531843
93	0xbc07786d	-0.008268458
94	0xbe2df059	-0.16986217
95	0xbe5ec1d3	-0.21753626
96	0xbdc0d0df	-0.09414839
97	0xbc17422e	-0.009232087
98	0x3d5e1d1f	0.05422699
99	0xbe4b1cac	-0.19835156
100	0xbe199bac	-0.1500079
101	0x3dbf3cd0	0.09337771
102	0xbd43db17	-0.047816362
103	0xbe17676e	-0.14785549
104	0xbe156002	-0.14587405
105	0x3dd54551	0.10413612
106	0x3e3094d9	0.17244281
107	0xbdcc8681	-0.09986592
108	0xbdb29c55	-0.08721224
109	0xbd8a06d8	-0.067395866
110	0xbe5dabf4	-0.21647626
111	0xbd53a819	-0.051673982
112	0xbe1ff48d	-0.15620632
113	0x3df30e25	0.11867932
114	0x3ce83471	0.028345319
115	0x3d2061f2	0.039155908
116	0xbe40fe42	-0.18846992
117	0x3d8ced1e	0.06881164
118	0x3e19c989	0.15018286
119	0x3e12c1b9	0.14331712
120	0xbcdd316b	-0.027001103
121	0xbe0e301e	-0.13885543
122	0x3d83734f	0.06418478
123	0xbe0a7a53	-0.13523225
124	0xbdaabc4f	-0.08336698
125	0xbdf44d06	-0.119287536
126	0xbe0ad911	-0.13559367
127	0xbdda6248	-0.10663277

fc3.weight f4 [64, 128]
0	0xbcaa3561	-0.020777406
1	0xbcbb1e86	-0.022841703
2	0xbbd9b7a1	-0.0066442047
3	0x3cb6788e	0.022274282
4	0xbddcbc75	-0.10778133
5	0xbb28baa4	-0.0025746012
6	0x3bfa6661	0.007641599
7	0xbd6e79fe	-0.05822181
8	0x3db9b34d	0.09067402
9	0xbc8e563d	-0.017375106
10	0x3d08fce5	0.033444304
11	0xbd812330	-0.063055396
12	0x3d001b40	0.031275988
13	0x3bf11a91	0.0073579033
14	0x3afc80fa	0.0019264512
15	0xbd4cbced	-0.04998486
16	0xbb917144	-0.004438551
17	0x3c8ff9c5	0.017575154
18	0x3cc09fe3	0.02351374
19	0xbbdbfc65	-0.0067134374
20	0xbd3519a1	-0.044213895
21	0x3d51f2ff	0.05125713
22	0xbd2ce458	-0.042209953
23	0xbb61586e	-0.0034384984
24	0xbda37653	-0.07981553
25	0xbc0f25d6	-0.008737048
26	0x3d12807c	0.035767063
27	0xbc67d543	-0.014149967
28	0x3bfb2a64	0.0076649655
29	0x3ceb3bd8	0.02871506
30	0xbdb5e4a7	-0.088815026
31	0xbd1ea801	-0.03873444
32	0xbc89768d	-0.016780162
33	0xbc698368	-0.014252521
34	0x3d544d2f	0.05183142
35	0xbb20cf3a	-0.002453758
36	0xbc8063e8	-0.015672639
37	0x3a63d01c	0.00086903735
38	0x3d245eea	0.04012958
39	0x3d29b826	0.041435383
40	0xbc7a8b73	-0.015292036
41	0x3d0bd9db	0.03414331
42	0xbd880ce0	-0.06643081
43	0xbd99af76	-0.0750417
44	0x3da1474b	0.07874926
45	0x3cc5cff5	0.024147013
46	0xbd8ef6f2	-0.06980695
47	0x3d315f23	0.04330362
48	0xbd489204	-0.048967376
49	0x3dcb45c8	0.09925419
50	0x3c0718da	0.008245671
51	0xbd36be2b	-0.044614952
52	0x3c88b055	0.016685644
53	0xbce881dc	-0.028382234
54	0x3c816498	0.015795037
55	0x3c1a1ef3	0.009406793
56	0x3b280f0b	0.0025643732
57	0xbd8a130e	-0.06741916
58	0xbd6bdeb1	-0.057585422
59	0xbcf17ec3	-0.02947939
60	0xbcf36e53	-0.029715693
61	0x3d218389	0.039432082
62	0xbb3cb529	-0.0028794503
63	0xbd334a27	-0.04377189
64	0x3bd0ab2a	0.0063680606
65	0x3bbb74c8	0.0057207085
66	0xbc7916d2	-0.015203195
67	0x3d27aaba	0.040934302
68	0xbd2e4414	-0.042545393
69	0xbd8657ec	-0.065597385
70	0x3d6ee037	0.058319297
71	0x3cc65a73	0.024213051
72	0x3b019b99	0.0019776581
73	0xbd5b20b3	-0.05349798
74	0x3d9065cf	0.070506684
75	0x3cc28944	0.023747094
76	0xbd9348d6	-0.07191627
77	0x3d4eb08a	0.05046133
78	0xbda02891	-0.078202374
79	0x3c9fc102	0.019501213
80	0x3b538451	0.0032274912
81	0x3ca9538e	0.020669725
82	0xbd889438	-0.066688955
83	0x3cebb2ff	0.028771875
84	0x3cc62061	0.024185361
85	0xbcff198d	-0.031140113
86	0xbb7818b7	-0.0037856528
87	0xbd69870e	-0.057013564
88	0xbcf4c10b	-0.029877206
89	0xbdb06929	-0.08613808
90	0x3c94d2e6	0.01816697
91	0x3c0aad52	0.008464174
92	0x3d8b27a1	0.06794668
93	0x3d146331	0.03622741
94	0x3d0c1b07	0.034205463
95	0xbd17fac6	-0.03710439
96	0x3c3bbbe3	0.01145837
97	0xbc9fad3b	-0.019491782
98	0xbd7775d0	-0.06041509
99	0xbc219301	-0.009861709
100	0xbd953752	-0.07285942
101	0x3cbeedde	0.023306783
102	0x3d6301e2	0.055421717
103	0x3acf97d4	0.0015838095
104	0x3d798a67	0.060923006
105	0xbdaed999	-0.08537597
106	0xbc1bc682	-0.009507777
107	0xbd813524	-0.06308964
108	0x3c5cc677	0.013475052
109	0xbbb8abbc	-0.0056357067
110	0x3be0fe36	0.006866242
111	0x3bcc7108	0.0062390603
112	0x3c9cb7bb	0.019130578
113	0xbd64a715	-0.055823404
114	0xbd45c334	-0.048281863
115	0x3d8e49b6	0.06947653
116	0x3d5049e9	0.050851736
117	0x3af9f84c	0.0019071191
118	0xbd3641de	-0.04449641
119	0xbcd79a9a	-0.026318837
120	0x3da6dd0b	0.08147629
121	0x3cf5ecad	0.030020082
122	0xbc9045f4	-0.017611481
123	0x3ce07b50	0.02740255
124	0x3b2a002d	0.0025940046
125	0x3d54e795	0.051978666
126	0xbcb69c2d	-0.022291267
127	0xbd1b0b1a	-0.037852384
128	0x3e176386	0.14784059
129	0xbd61e828	-0.055153042
130	0xbe0bd8fe	-0.13656995
131	0x3d60d470	0.054890096
132	0xbdcaa7ab	-0.098952614
133	0x3db87647	0.090069346
134	0xbd176aee	-0.03696721
135	0xbd687da5	-0.05676045
136	0xbd69911a	-0.057023145
137	0x3e4d7006	0.20062265
138	0x3de77ad1	0.11302722
139	0x3dc82a5c	0.097737044
140	0x3cb3f7ed	0.021968806
141	0xbc7a9739	-0.015294843
142	0xbe27c8c7	-0.16385184
143	0xbd8098c0	-0.06279135
144	0xbd8a5b17	-0.06755655
145	0xbd6ec4cf	-0.05829316
146	0x3d0ce54c	0.034398362
147	0x3df26486	0.118355796
148	0x3d0472d1	0.03233606
149	0xbdac3bd0	-0.08409846
150	0xbca90308	-0.020631328
151	0x3dd9b5ea	0.106304005
152	0xbd980301	-0.07422448
153	0x3dcc45f4	0.0997428
154	0xbdb8423f	-0.089970104
155	0xbc83fa4f	-0.016110567
156	0xbd2ff8eb	-0.042961996
157	0x3c6c4b82	0.014422299
158	0xbe2ffaf1	-0.1718557
159	0xbd906c68	-0.07051927
160	0x3db05582	0.08610059
161	0xbd4b13b3	-0.049579334
162	0xbde05a3d	-0.109547116
163	0x3e182e5c	0.14861435
164	0x3e1487d9	0.14504947
165	0xbe155e33	-0.14586715
166	0xbc117d83	-0.008880022
167	0xbd91c7e4	-0.07118204
168	0x3cd7f425	0.026361534
169	0xbdc55b89	-0.096365996
170	0x3d6c1104	0.057633415
171	0x3d77d36e	0.06050437
172	0x3caec114	0.021332301
173	0xbd6250aa	-0.05525271
174	0xbd83c0d0	-0.064332604
175	0xbda9a015	-0.08282486
176	0x3db98485	0.09058479
177	0xbbf107ca	-0.007355665
178	0xbd60a2e4	-0.054842845
179	0x3cd84dbc	0.026404254
180	0x3e03bf23	0.12865882
181	0x3c6e44de	0.014542786
182	0x3db5d2d9	0.088781066
183	0x3d21ba81	0.039484505
184	0x3dd98581	0.10621167
185	0x3cd104d4	0.025514998
186	0x3c45d92a	0.012075702
187	0xbd9b069c	-0.0756962
188	0xbdc85fcc	-0.09783897
189	0x3e371df6	0.17882523
190	0xbdb228a9	-0.086991616
191	0x3e155c61	0.14586021
192	0x3e18d074	0.14923269
193	0x3df55f4e	0.119810686
194	0xbc451620	-0.012029201
195	0x3c4e6a13	0.012598532
196	0xbdbd9abc	-0.09258029
197	0xbe12e492	-0.14345005
198	0xbde6623f	-0.11249208
199	0x3e223297	0.15839611
200	0xbda4cb4f	-0.080465905
201	0x3d8d6ffd	0.06906126
202	0x3d288267	0.041139986
203	0x3dec6556	0.11542766
204	0xbd56b5f5	-0.05241962
205	0x3cb83f9a	0.022491265
206	0xbd8e2a98	-0.06941718
207	0xbd6a9ee9	-0.057280455
208	0xbda050fa	-0.07827945
209	0xbdbb7bbb	-0.09154459
210	0xbcfd82ae	-0.030946102
211	0xbd6f74df	-0.058461066
212	0x3d0f3a4c	0.034967706
213	0x3dc1f368	0.09470254
214	0x3dd47045	0.10372976
215	0xbd9379e9	-0.07200987
216	0x3d19787f	0.03746843
217	0x3d33e4af	0.04391926
218	0xbcb0ae4a	-0.021567483
219	0xbe14cc3f	-0.14531039
220	0x3bee3628	0.0072696395
221	0xbc241e21	-0.010016949
222	0x3da5d641	0.08097506
223	0xbde4d450	-0.11173308
224	0xbdf0878b	-0.11744603
225	0x3a053026	0.0005080722
226	0x3c6d242d	0.014473957
227	0x3dbd6dfc	0.092494935
228	0x3ca283e1	0.019838275
229	0xbcb4e0bd	-0.02207982
230	0xbd077be0	-0.03307712
231	0xbb732c89	-0.0037105402
232	0x3dd7c353	0.10535302
233	0x3d061c64	0.03274192
234	0xbb82f51c	-0.0039965045
235	0xbb34473d	-0.0027508282
236	0xbdb232b0	-0.08701074
237	0x3d501ae2	0.050806887
238	0x3d6b0395	0.057376463
239	0xbd800160	-0.06250262
240	0x3c138402	0.009003641
241	0xbc770132	-0.015075969
242	0x3bada52a	0.00529923
243	0x3db6b8cf	0.08921968
244	0xbd47e970	-0.048806608
245	0xbde3ed2d	-0.11129222
246	0xbd434add	-0.047678817
247	0xbd832cae	-0.06405006
248	0x3d6efea3	0.05834831
249	0xbd1a07d2	-0.037605114
250	0x3b88ec44	0.0041785557
251	0x3c0cfa30	0.008604571
252	0x3e091928	0.13388503
253	0x3d25eea0	0.040510774
254	0x3c2d4287	0.010574943
255	0xbd972ef4	-0.073820025

fc3.bias f4 [64]
0	0xbd8c85ef	-0.06861483
1	0x3dde1bb4	0.10845128
2	0x3a489c59	0.0007652692
3	0xbec15f50	-0.3776803
4	0x3ace345b	0.0015732156
5	0xbe1f8ca9	-0.15581001
6	0x3daa3f61	0.0831287
7	0xbc25ad9f	-0.010112195
8	0xbd27179f	-0.04079401
9	0x3dcc7813	0.0998384
10	0xbcb1120e	-0.021615054
11	0x3da0635d	0.07831452
12	0xbcd5fd7a	-0.026121844
13	0x3d3bdd32	0.045865245
14	0xbe8e0361	-0.27736953
15	0xbd694d61	-0.05695856
16	0x3d15ffb2	0.036620803
17	0x3bb46f53	0.005506435
18	0xbbabd460	-0.005243823
19	0xbb25d2dd	-0.0025302686
20	0xbd168b06	-0.036753677
21	0x3e0f7774	0.14010412
22	0xbc885473	-0.016641831
23	0x3d0affef	0.033935484
24	0xbcd7b4ea	-0.026331384
25	0xbe0af8dd	-0.13571496
26	0xbdc31504	-0.09525493
27	0xbda82dfd	-0.082118966
28	0x3db3b5be	0.08774899
29	0x3d9fbdbf	0.07799863
30	0x3d55a5a1	0.05215991
31	0xbd841139	-0.064485975
32	0xbd917570	-0.071024776
33	0xbe321e62	-0.17394403
34	0xbe4e7633	-0.20162277
35	0xbd0fe22e	-0.03512781
36	0xbd1feefd	-0.039046276
37	0xbd3d4082	-0.046204098
38	0xbe8f7d08	-0.2802508
39	0xbbb33c2e	-0.0054698205
40	0xbea376ae	-0.31926483
41	0xbb79471d	-0.0038036772
42	0xbceea070	-0.029129237
43	0x3dbec95c	0.0931575
44	0x3d3d9c9c	0.046291932
45	0x3d3bf9c2	0.045892484
46	0xbea3e3eb	-0.32009825
47	0x3ba8ca3e	0.0051510623
48	0xbe0c2756	-0.1368688
49	0x3d3b9af8	0.045802087
50	0x3d883a98	0.06651801
51	0xbd8e6c3c	-0.06954238
52	0x3da64474	0.08118525
53	0xbdcabd75	-0.09899417
54	0xbcd5aada	-0.026082445
55	0xbda3ce3d	-0.07998321
56	0x3d88eca9	0.06685764
57	0x3cc32413	0.023820912
58	0xbd9c90c3	-0.076447986
59	0x3cb75000	0.022377014
60	0xbdad5452	-0.084633484
61	0x3d9c5194	0.07632747
62	0x3d3aa16e	0.045564108
63	0x3d120cb5	0.03565665

fc4.weight f4 [4, 64]
0	0xbb3228eb	-0.0027185034
1	0xbc8a2bb6	-0.016866546
2	0x3d902e0e	0.07040034
3	0xbdf24f69	-0.118315525
4	0x39fc85ca	0.00048164866
5	0xbe281de4	-0.16417652
6	0x3d9e5112	0.07730307
7	0x3adc2a8a	0.0016797346
8	0x39ba61c8	0.00035549537
9	0x3e0be5ea	0.13661924
10	0x3a75aca8	0.0009371736
11	0xba955e40	-0.0011395887
12	0xbe5173fc	-0.20454401
13	0x3c934073	0.017975068
14	0xbe297b05	-0.16550834
15	0xba96f095	-0.0011515791
16	0x3bb514b3	0.005526149
17	0x3d12e1af	0.03585976
18	0x3b5681cb	0.0032731171
19	0x3d082814	0.033241346
20	0x3a8937b0	0.0010468867
21	0x3dc960be	0.09832905
22	0xbd2e0d3f	-0.0424931
23	0x3d3eece8	0.04661265
24	0x39ff1fa8	0.00048660976
25	0xbb47609b	-0.0030422572
26	0xbaff7c87	-0.0019492068
27	0xbddfa1b2	-0.10919513
28	0xba8a77b2	-0.0010564236
29	0x3a2063f0	0.00061184075
30	0xbb38c023	-0.0028190694
31	0x3c538a0d	0.012911332
32	0xb9055ed2	-0.00012719192
33	0xbcf1e084	-0.029526003
34	0xbda27cb2	-0.0793394
35	0x397cf0ea	0.0002412234
36	0x3b4c5954	0.0031181173
37	0x3d17aeb7	0.037031855
38	0xbe4726c0	-0.19448376
39	0x3b396791	0.002829049
40	0xbea868f2	-0.32892567
41	0x3b26a580	0.0025428236
42	0xba2e86b4	-0.00066576456
43	0x3a8975a0	0.0010487325
44	0x3b6f3317	0.0036498958
45	0x3acd8cd5	0.001568223
46	0xbe307dfd	-0.1723556
47	0x3ab92f71	0.0014128519
48	0xbdc3abb8	-0.09554237
49	0xbb128ed1	-0.0022362957
50	0x38f1892c	0.00011517326
51	0x3af5af4c	0.0018744259
52	0xbb952e54	-0.004552642
53	0x3b4a1b19	0.0030838905
54	0x3b02f98b	0.0019985165
55	0x3da9b3ec	0.082862705
56	0xb8c78dce	-9.5154726e-05
57	0x3d2aed93	0.041730475
58	0xba61d715	-0.00086151186
59	0x3a81efa8	0.0009913342
60	0x3da02386	0.078192756
61	0x3914bbcf	0.00014184344
62	0xbde93d74	-0.113886744
63	0x3b181c35	0.0023210172
64	0x3bb3c40d	0.0054860176
65	0x38bee1e4	9.1019814e-05
66	0x3d68d198	0.05684051
67	0xbe654f0c	-0.22393435
68	0x399ca96a	0.00029880862
69	0xbdae15d5	-0.08500258
70	0x3d869c45	0.06572775
71	0x39ea46c8	0.00044684694
72	0xbbe90b76	-0.007111962
73	0x3e08fb2a	0.13377061
74	0x3b9f7b9f	0.0048670317
75	0xba974b79	-0.0011542878
76	0xbd946a80	-0.07246876
77	0x3d05602f	0.03256243
78	0xbe12c4c3	-0.14332871
79	0x3b90188c	0.0043974575
80	0xb8f281ec	-0.00011563659
81	0x3cb25acf	0.021771817
82	0xbb7de442	-0.0038740789
83	0x3dc4c2e6	0.096074864
84	0xbb474d89	-0.0030411205
85	0x3dbf1cf1	0.09331692
86	0x3c21e69c	0.009881642
87	0x3d989196	0.07449643
88	0x3be184a7	0.0068822685
89	0x3bd92400	0.006626606
90	0x3b29fc7f	0.0025937853
91	0xbde2a211	-0.11066068
92	0x3b42db3d	0.0029732727
93	0xbbcd66be	-0.0062683513
94	0xbbcaacc3	-0.0061851456
95	0x3cd91b76	0.026502352
96	0x3bdd20c0	0.006748289
97	0xbd8f1efd	-0.069883324
98	0xbdc10c0a	-0.094261244
99	0xb90617f0	-0.00012788153
100	0xbb45be82	-0.0030173366
101	0x3c7ae541	0.015313447
102	0xbe0633cd	-0.13105698
103	0xbbaf9c55	-0.0053592124
104	0xbe84a011	-0.2590337
105	0xbb9dba10	-0.00481344
106	0xbad6d4e2	-0.0016390348
107	0x3be07571	0.0068499376
108	0xb9eb5dfe	-0.00044892723
109	0xbb88e42e	-0.0041775918
110	0xbe2db656	-0.16964087
111	0x3bcb488a	0.0062037157
112	0xbdd7ea49	-0.10542733
113	0xb996b496	-0.00028744777
114	0xbc0b620f	-0.008507266
115	0x3aaac166	0.0013027608
116	0x3beb225d	0.0071757273
117	0xbba659d1	-0.005076625
118	0x3a8c92b6	0.0010724876
119	0x3dc0e8a3	0.09419372
120	0x3c0dfde5	0.00866649
121	0x3d6d7b55	0.057978947
122	0xbb1f44d1	-0.0024302492
123	0x3b2b4c13	0.0026137873
124	0x3d6fede0	0.058576465
125	0x39fa84a8	0.00047782552
126	0xbd085415	-0.033283312
127	0xbb502007	-0.003175737
128	0xb8b6d374	-8.7178225e-05
129	0xbbbf6e56	-0.0058420105
130	0xbca4f516	-0.020136397
131	0xbdfab46c	-0.12241444
132	0x3b2e723f	0.002661839
133	0xbe2a995d	-0.16660066
134	0x3d9ba82a	0.07600434
135	0x3b798387	0.0038072781
136	0xb9361b78	-0.00017367105
137	0x3d416c40	0.047222376
138	0xbb116a20	-0.00221885
139	0x3b289dde	0.0025728862
140	0xbe36f32c	-0.178662
141	0x3c84f465	0.016229818
142	0xbe4e7421	-0.20161487
143	0xbb018173	-0.0019760996
144	0x3a29fc44	0.0006484429
145	0x3c8eee06	0.017447483
146	0x3a6b1ad3	0.00089685357
147	0x3e31b24b	0.1735317
148	0x3aeedb76	0.0018223363
149	0x3d7b83e1	0.061405066
150	0x3c8374a4	0.01604683
151	0x3d7b8566	0.061406516
152	0xbb0ae155	-0.0021191437
153	0x3d659287	0.056047942
154	0xbacf9efc	-0.0015840228
155	0xbe3f2d23	-0.18669562
156	0x3b9a53df	0.0047097052
157	0x3b06fe3b	0.002059831
158	0x3bb28d1e	0.0054489514
159	0x3c477aac	0.012175243
160	0xbb4c6040	-0.00311853
161	0x3cf764b2	0.030199382
162	0xbd5b7384	-0.05357696
163	0xb91e05c0	-0.00015070196
164	0x3ba0813a	0.0048982175
165	0x3d31100c	0.043228194
166	0xbe3ea6b5	-0.18618281
167	0x3a4036ba	0.00073323736
168	0xbeaa2c4b	-0.33236918
169	0xbb3e67eb	-0.002905364
170	0xba114de6	-0.0005542919
171	0xbb9ab8c8	-0.0047217347
172	0x3b6d7b6f	0.0036236902
173	0x3a436814	0.00074541685
174	0xbe15b501	-0.14619829
175	0x3a972547	0.0011531495
176	0x3ce921f6	0.028458577
177	0x3a5140fe	0.0007982402
178	0x3b191d00	0.0023363233
179	0x3b07659b	0.0020659927
180	0xbb55947b	-0.0032589722
181	0xbba38df1	-0.004991286
182	0xbb0e29e5	-0.0021692452
183	0x3df3696d	0.11885343
184	0xbb601af7	-0.003419576
185	0x3d7476c7	0.059683587
186	0x382bf8fa	4.1001455e-05
187	0x3a7377b7	0.0009287553
188	0x3dd77853	0.10520997
189	0xbaff0b73	-0.0019458368
190	0xbcb84b14	-0.022496738
191	0xba4b1388	-0.0007746746
192	0x3a867a87	0.0010259905
193	0x3d0df2e9	0.034655485
194	0x3e039bc4	0.12852389
195	0xbe60791d	-0.21921201
196	0xbadf7679	-0.0017048857
197	0xbda3f4ed	-0.080057
198	0x3ddff320	0.10935044
199	0xba1cfde9	-0.00059887633
200	0xb97737c5	-0.00023576531
201	0x3d977fad	0.07397399
202	0xbb1c2614	-0.0023826407
203	0x39cbb25a	0.0003885206
204	0xbdf604a6	-0.12012605
205	0xbaa8df68	-0.0012883963
206	0xbde584e6	-0.11206989
207	0x3ad33ed0	0.0016116742
208	0xbb7e5829	-0.0038809872
209	0x3d6e3618	0.058157057
210	0xbae40d1b	-0.0017398925
211	0xbc61908b	-0.013767372
212	0xba42b4a9	-0.0007427433
213	0x3d515a44	0.051111475
214	0xbc19ccb5	-0.009387185
215	0x3dd7f0fc	0.10544011
216	0xbb8594d2	-0.0040765787
217	0x3ce59ea1	0.028029742
218	0xba03b611	-0.00050243834
219	0xbd96974a	-0.07353075
220	0xbaf66757	-0.0018799108
221	0xba81ce60	-0.0009903423
222	0x3b3b512f	0.0028582325
223	0x3d13957e	0.03603124
224	0xbac7afa0	-0.0015234835
225	0x3d505bb3	0.0508687
226	0xbe7a8ffe	-0.24468991
227	0xba7ed613	-0.00097212306
228	0xbb02826b	-0.001991416
229	0x3c91342c	0.017725073
230	0xbe3ac8bf	-0.18240641
231	0xbb1eec6a	-0.00242498
232	0xbe8b895e	-0.2725324
233	0xbb1ba6a8	-0.0023750458
234	0xb96b9d40	-0.00022469927
235	0xb93c3ebb	-0.00017952446
236	0xbb451d01	-0.0030077102
237	0xb9ee5cac	-0.00045463943
238	0xbe3a05f3	-0.18166332
239	0x3a04fada	0.000507278
240	0xbd8ea2cd	-0.069646455
241	0xba55befe	-0.0008153765
242	0xb9658308	-0.00021887955
243	0xbb12d7d8	-0.0022406485
244	0xb9611724	-0.00021466293
245	0x3a47c5cc	0.00076207216
246	0x3982813f	0.00024891828
247	0x3d866e90	0.06564057
248	0x3b047d61	0.0020216333
249	0x3d98aa37	0.07454341
250	0xbac890b5	-0.0015301915
251	0xbb6b2318	-0.0035879072
252	0x3da886c0	0.082288265
253	0xba3235b5	-0.0006798164
254	0xbcf29686	-0.02961279
255	0xbada0ebc	-0.0016636471

fc4.bias f4 [4]
0	0x3d618102	0.055054672
1	0x3e7af045	0.24505718
2	0x3e595af6	0.21226105
3	0x3e05c432	0.13063124
