Projet1_Navigation_Banana/checkpoint.pth (torch_old, 78282 bytes, 8 tensors)

fc1.weight f4 [64, 37]
000000 0a 82 64 3b 73 ab bf 3d 11 15 49 be 19 99 45 3e
       0.0034867548 0.09358873 -0.19636942 0.19296683
000010 a1 11 8e be d3 96 71 3d b9 45 b0 3c 7c b9 28 3e
       -0.27747825 0.058981728 0.021517621 0.16477007
000020 2a b1 88 3b 4d de f9 3d b1 12 fb bd ec 40 17 bd
       0.00417151 0.12200604 -0.122594245 -0.03692715
000030 41 e6 cf bd 58 6a 1d 3e b6 5f ee bd 1b 5a 05 3e
       -0.10151339 0.15372598 -0.11639349 0.13022654
000040 44 1e 18 3c e3 2f 7d 3e 8e 26 d0 be 50 13 db be
       0.00928456 0.24725299 -0.40654415 -0.42788172
000050 05 a6 c8 3d 09 f2 38 3e 22 1b 14 3e c8 73 45 bd
       0.09797291 0.18061079 0.14463475 -0.04820612
000060 e8 54 09 3e 3a 9d ae 3d 58 a7 38 3e 5d 38 a2 bd
       0.13411295 0.08526082 0.18032587 -0.07920907
000070 ac a2 d0 bd 08 8e aa 3d fb 8b 26 be af bb f4 3d
       -0.10187277 0.083278716 -0.16264336 0.1194986
000080 1e 3a 68 3c 30 d4 3c bd 65 55 20 be 96 04 17 be
       0.0141740125 -0.046100795 -0.15657575 -0.14747843
000090 6c 28 8b bd 0b fd 62 3e 9a 05 58 3d b0 00 1e bd
       -0.06794819 0.2216684 0.052739717 -0.038574874
0000a0 fa 36 be bd 8b 7a 69 be 3a 3c 21 3d 02 76 4c be
       -0.0928783 -0.22800653 0.039364077 -0.19966891
0000b0 d2 76 0a be c1 1a 09 3d c4 10 71 3e 12 2a bb 3c
       -0.13521889 0.03347278 0.23541552 0.02284721
0000c0 8d aa 82 bd 4f f2 fb 3c c9 08 ec 3d df 87 bf 3e
       -0.06380186 0.03075519 0.11525113 0.3740835
0000d0 b4 5b 55 3d ad 2b 6f 3b c6 93 ca 3d 8f 52 84 bd
       0.052089408 0.0036494539 0.09891467 -0.06461059
0000e0 ea 77 36 bd d0 83 ab 3d 55 1b 64 be 3d 4f db bd
       -0.044547953 0.083747506 -0.22276051 -0.10708473
0000f0 7a 5c 4d be f1 98 d3 bb 69 a0 03 bd f0 40 b2 ba
       -0.20054808 -0.006457441 -0.0321354 -0.0013599675
000100 a8 6e 81 bb 55 9c 44 3d 8b d5 d8 3e 8a dc 4d 3d
       -0.003949959 0.048000652 0.4235042 0.05025915
000110 a4 22 6c 3e 09 57 94 3d 79 10 49 be 48 da eb be
       0.2306009 0.07243163 -0.1963519 -0.46064973
000120 88 30 09 3d 56 4d a6 3c 3f 44 84 3e 0a ce 3b 3e
       0.03349355 0.020300549 0.25833318 0.18340316
000130 f2 64 3f 3b 1a 69 1d be b0 18 ab bd 27 de af be
       0.0029204455 -0.15372124 -0.08354318 -0.34349176
000140 84 fc c4 3d 98 14 80 3e 00 40 2e 3c 40 c1 53 be
       0.09618476 0.25015712 0.010635376 -0.20679188
000150 6d 6a 0d 3e 23 3b 63 3e e0 f4 31 be 71 42 a5 3d
       0.1381013 0.22190528 -0.17378569 0.08069313
000160 a9 3a 77 3e e8 5e 99 3c 24 ba 08 3c f7 99 8c 3c
       0.24143471 0.018722013 0.008345161 0.01716326
000170 fd 60 e4 3e a1 c9 32 bc 97 3a a4 be c2 79 55 bc
       0.44605246 -0.01091233 -0.3207595 -0.013029518
000180 15 fe 57 3e 1a 2e 1b 3e 01 79 1d be 39 ef 69 be
       0.21093018 0.15154305 -0.1537819 -0.22845162
000190 4c 3f 87 3e 88 dc 63 3e 9f a9 91 bd 82 a0 ee bd
       0.2641548 0.22252095 -0.07112431 -0.11651708
0001a0 fd fd 48 be 60 96 aa bc 04 cf 35 bd 70 e8 32 bd
       -0.19628139 -0.020823658 -0.04438688 -0.0436787
0001b0 b7 b4 94 bd 3a 11 c8 3d bc 53 1f bd 65 ae 0c 3e
       -0.07261031 0.09768911 -0.038898215 0.13738401
0001c0 0c e1 82 3d a7 4a 50 3e 9b ee 9d bd 06 43 76 be
       0.063905805 0.20340978 -0.07711526 -0.24049005
0001d0 0f 9e 38 be 03 ef 82 bd 7d b5 10 3e e5 a9 e1 3e
       -0.18029045 -0.06393244 0.14131732 0.44074932
0001e0 8a a6 42 3e 9b 31 61 bd b1 77 0c be 76 0a 67 3e
       0.19008842 -0.054978948 -0.13717534 0.22562584
0001f0 65 87 f1 bb 78 30 c0 3d c3 18 ad bd ea e3 16 3e
       -0.0073708766 0.09384245 -0.084519885 0.1473538
000200 94 63 98 3c 3a 06 b0 be c3 b2 8c be 84 0e da 39
       0.01860217 -0.3437975 -0.27480134 0.00041591015
000210 50 a0 db 3c 62 4e c8 3d db ec cf 3d 6d 58 20 bd
       0.026809841 0.09780575 0.101525985 -0.03914683
000220 6d 26 7f 3d c0 d5 43 bd 8f 89 c3 3d 3a 72 3d 3e
       0.062292505 -0.04781127 0.095477216 0.18500605
000230 0d 2c d8 3d 04 41 03 3e 1e 7e 6e 3e 00 dc 2a 3e
       0.10555277 0.1281777 0.23290297 0.16685486
000240 9b 53 af be 7b 2e b9 be 98 8a 2a 3d ea 16 9d bb
       -0.34243473 -0.36168274 0.04163608 -0.0047939913
000250 06 c1 cc bd 06 1c 9f bd 4d 43 24 be d7 1c e3 bd
       -0.09997754 -0.07769017 -0.16041298 -0.11089485
000260 47 6a ae 3d c3 2d 6c 3e 43 ce 0d be e8 6c a2 bd
       0.085163645 0.23064332 -0.13848214 -0.079309285
000270 7c 03 85 bd da 46 10 c0 01 9a aa 3d 31 ee 2c bd
       -0.06494805 -2.2543244 0.08330155 -0.042219345
000280 f1 0c 5d bd 90 7a 01 be 4a 5d 03 be 45 a2 11 be
       -0.05396742 -0.1264441 -0.12828556 -0.14222057
000290 05 0c 8a bd 2c a9 99 3d cc 35 5c 3d 41 ab 8b 3d
       -0.06740574 0.0750297 0.053762242 0.068197735
0002a0 4f 6a d0 bc 9c 8d 8a 3d 12 9e a1 3c 94 22 89 bd
       -0.025441317 0.06765291 0.019728694 -0.066960484
0002b0 45 a6 c3 3c 7f 39 3d 3e 44 f1 d3 3d 53 28 0a 3e
       0.023882994 0.18478964 0.10348752 0.13491945
0002c0 cb 77 0f be 6d 9b 57 bf 1b eb 1a 3e 3f fe de 3d
       -0.14010541 -0.84221536 0.15128748 0.10888337
0002d0 25 9c 7d 3d 03 a6 e7 3c af e5 93 bd 8f 55 4f 3d
       0.06191649 0.028277403 -0.07221543 0.050618704
0002e0 18 f8 6c 3b c1 ce ef 3c c0 a5 d5 bd 92 75 bb 3c
       0.0036158618 0.029273393 -0.10432005 0.02288321
0002f0 9d fc 88 3d 06 ae 6c 3e de 52 af 3e e4 49 54 bd
       0.06688807 0.2311326 0.3424291 -0.05182828
000300 df cd fa be f2 17 a6 be 0e fa c6 bf 37 d9 52 bc
       -0.48985192 -0.32440144 -1.5545061 -0.012869171
000310 b3 4b a5 bd 73 ae b6 bd ca 21 bc bd 3a 76 2e be
       -0.08071079 -0.08919992 -0.09186132 -0.17037287
000320 0e c7 8f bc 88 ce 39 3e 43 af 98 bd 9d d3 15 be
       -0.017550971 0.18145192 -0.074553035 -0.14631505
000330 58 83 73 bd 5a 74 3a 3c 81 e7 85 3d 19 9d 56 3e
       -0.05945143 0.011380279 0.065382965 0.20958365
000340 8e 3c 0a 3e 6a a7 0c 3e 3a 18 ae bd 64 61 67 3d
       0.13499662 0.13735738 -0.085007146 0.056489363
000350 ab 02 9a 3c 2c a6 30 3e fa ab 52 3e cf cb d1 3c
       0.0188001 0.1725089 0.20573416 0.025609879
000360 a5 d1 d9 3d 05 83 58 3b f9 96 b0 bc 2e b1 27 be
       0.1063569 0.0033037078 -0.021556364 -0.16376182
000370 35 b4 b2 bc 25 2e 9e 3c 58 99 c9 3d 2c 52 23 bd
       -0.021814445 0.019309113 0.09843701 -0.039873287
000380 fa 8e d9 bb 4d db fd 3d c8 1e 21 be 94 5e a8 3c
       -0.0066393586 0.12395344 -0.15734398 0.02055291
000390 92 3d 37 bb 89 5e 74 bd 60 80 12 3e bb 6b 45 3e
       -0.0027960283 -0.05966047 0.14306784 0.19279377
0003a0 ee 69 ce 3d 96 fe 90 3d 7b a2 38 3d 14 cd 20 3e
       0.10078798 0.070798084 0.04507683 0.15703231
0003b0 9a 46 be 3d 2f 84 08 3c b9 c8 1c bd 64 55 81 3d
       0.0929081 0.008332296 -0.03827736 0.06315115
0003c0 0b a5 35 3e 13 22 d8 3e 81 b2 a0 bc 83 7d 87 3d
       0.1773874 0.42213497 -0.019616367 0.06615736
0003d0 98 63 40 3d 02 08 b0 3d bf c8 77 3e 49 66 54 bb
       0.04696998 0.08595277 0.24197672 -0.00324096
0003e0 52 67 26 bd 3d 2c 49 bc b1 de ad bd 9d fa 87 bd
       -0.040625878 -0.012278614 -0.08489741 -0.066395976
0003f0 c9 29 c0 3e f0 02 6e bc a3 60 88 be 5a 68 c1 be
       0.3753188 -0.014527068 -0.26636228 -0.37774926

fc1.bias f4 [64]
000000 31 1f 29 3e 4f c4 38 bd 78 11 0a be 6f 5f c9 bb
       0.16515805 -0.04510909 -0.13483226 -0.00614541
000010 83 31 52 3e a6 30 b7 3c 06 4c ec bc d4 95 45 3d
       0.205267 0.022362065 -0.028844845 0.04823859
000020 2c 93 6a bd f2 ce 21 be 4d f3 35 3e 6f 93 e6 3d
       -0.05726926 -0.158016 0.17768593 0.112585895
000030 8d e6 24 3e 84 2a a4 3d ba e2 83 bd 4b a7 96 bd
       0.16103573 0.08015922 -0.06439729 -0.07356127
000040 90 3b 15 bc 16 f8 b0 bd 89 a0 7d 3c 48 67 1f be
       -0.009108439 -0.08641069 0.015480169 -0.15566742
000050 41 ae be bd cf 8a 10 bd e5 5a f1 3c 0f ba f7 3b
       -0.0931058 -0.03528863 0.029462287 0.0075600217
000060 8c 15 96 bd 97 a0 da 3d d3 69 2e 3d ca 67 57 be
       -0.073283285 0.10675161 0.04258139 -0.21035686
000070 47 f6 3b 3e 1e f3 92 3d a2 ab f4 b9 a1 37 32 be
       0.18355666 0.07175277 -0.00046667183 -0.17404033
000080 86 ae 0c 3e 98 2a 10 bd 7c f4 b4 bd d6 24 84 3d
       0.1373845 -0.03519687 -0.08835694 0.064523384
000090 af f9 9b bc 7d 15 50 3b f9 e1 1a bd e7 1c 00 be
       -0.019039957 0.003175109 -0.03781316 -0.12511025
0000a0 dd 2c 3b bd 1f 86 98 bd 11 f2 a9 bd 41 31 25 3e
       -0.04569708 -0.074474566 -0.08298124 0.1613207
0000b0 00 a3 c9 3c 85 95 e5 bd 36 d5 d5 3b b5 e3 19 be
       0.024613857 -0.11210159 0.006525661 -0.1502827
0000c0 29 42 b7 bd e7 dc 61 3d 83 72 b1 bd 24 c0 25 3e
       -0.08948166 0.05514231 -0.086644195 0.16186577
0000d0 b0 f6 1a bc 71 4b 91 bd 7b cb 6a be eb c7 46 3b
       -0.009458229 -0.070944674 -0.22929184 0.0030331563
0000e0 05 3b 29 3d 80 f7 5f bc c0 bb da bd a0 ee 88 bc
       0.04131605 -0.013669848 -0.10680342 -0.016715348
0000f0 c3 b7 d1 3a 22 91 11 3d 6e 7d 36 3d fa b1 93 3d
       0.00160002 0.0355388 0.044553213 0.07211681

fc2.weight f4 [128, 64]
000000 e9 8f 5f be 4d 19 11 3e 9e 20 a2 bd f5 ea 0d 3e
       -0.21832241 0.14169808 -0.079163775 0.1385916
000010 b4 c7 0a bf f1 69 27 bd 0b e7 f5 bc 80 23 6a bd
       -0.5421097 -0.040872518 -0.030017396 -0.05716276
000020 5b f8 2f be 9c a9 16 3e 7a 69 43 be c8 5b 9f be
       -0.17184584 0.14713138 -0.19083205 -0.3112471
000030 25 4b 80 bd 20 45 ad 3e 14 dc fe 3c a1 48 e0 3d
       -0.06264333 0.338418 0.0311108 0.10951353
000040 b6 9b 03 bd 84 6e d9 bc 32 c0 8a 3d 7d 23 b1 bc
       -0.03213092 -0.026541956 0.067749396 -0.021623367
000050 28 c8 0f 3e fe b5 ad 3c 1c 81 a0 bc 8d 2e af 3d
       0.14041197 0.021204945 -0.019592814 0.08553801
000060 c5 0c a9 be 42 b1 fb 3c d0 33 62 3e 66 38 82 bd
       -0.33017555 0.030724172 0.22090077 -0.063584134
000070 95 99 98 bd ac 41 1b 3d 21 bf 29 3d 40 b5 20 be
       -0.074511684 0.037904426 0.04144204 -0.15694141
000080 8a 99 b0 3d e2 48 fa 3d 8e b5 05 bc ec a8 8d be
       0.08623035 0.122209325 -0.008160962 -0.2766794
000090 52 67 8e bd 01 55 cc 3d 0c 75 03 be 57 93 32 be
       -0.069533005 0.09977151 -0.12837619 -0.17439018
0000a0 ec 01 9f be b8 c9 6b be 2f 69 e4 3d 57 27 87 be
       -0.31056154 -0.23026168 0.11152875 -0.263972
0000b0 09 b7 2a 3e 83 06 3c bd e0 9e b0 bd 99 09 0a be
       0.16671385 -0.045904648 -0.08624053 -0.13480224
0000c0 07 7b 09 bd b6 ed 12 3c cb 90 81 bd 68 f9 2d bd
       -0.033564594 0.0089678075 -0.06326445 -0.04247418
0000d0 45 39 8f be 93 41 c7 bc 8b e4 0b bc e7 5d 39 be
       -0.2797338 -0.02432326 -0.008538376 -0.18102227
0000e0 eb 31 01 3e a6 59 90 bd a5 2d 83 be 6b e3 c8 bb
       0.12616698 -0.07048349 -0.25620762 -0.006130626
0000f0 d8 09 b8 bc 11 3c 80 3e 64 21 57 be a4 a7 b1 3d
       -0.022465631 0.25045827 -0.21008831 0.08674553
000100 f6 e1 72 3e 17 91 3d 3d 25 ed 86 be 7d 83 72 3e
       0.2371901 0.046280947 -0.26352802 0.23682971
000110 bb c1 77 3d fc aa 3f 3d a9 87 0c bf 0d 52 25 3c
       0.06048749 0.046793923 -0.548945 0.010090363
000120 a0 fa 8c 3c 8f 9f 1b be 93 66 8c 3d 42 5e 30 3c
       0.017209351 -0.15197586 0.06855502 0.01076466
000130 bc 07 0d 3e 28 11 dc bc 97 29 98 bc 7a 95 24 3e
       0.13772482 -0.02686365 -0.01857452 0.16072646
000140 e1 03 c0 3c 7e 82 f4 bd ad 8d 8e be 67 c7 69 bd
       0.02343935 -0.11938952 -0.27842465 -0.05707493
000150 b9 fa 0a be 7f 28 ae be 13 d6 b0 bd 23 95 84 be
       -0.13572206 -0.3401527 -0.086345814 -0.25895032
000160 ce c3 6b be 8b 8d 3e bd 8f e4 a4 be 72 93 c3 3c
       -0.23023912 -0.046521705 -0.32205626 0.023874018
000170 1a f7 42 3e fe 01 c5 be 67 d2 eb 3d 0b 6b 8c be
       0.19039574 -0.38478082 0.115147404 -0.27425417
000180 0b fb e0 bc a7 2d c2 3d 12 76 00 3e cc 25 8f bd
       -0.027463457 0.09481364 0.1254504 -0.06989631
000190 a4 cc e7 3d 14 db 9e bd 0a cf 8b 3e 01 06 63 be
       0.11318329 -0.077566296 0.27306396 -0.22170259
0001a0 f7 18 ae 3d 9c f8 58 be c9 d8 9d bd de 87 c7 bd
       0.085008554 -0.21188587 -0.07707364 -0.097427115
0001b0 32 4b 5a be 7b 86 39 be 1d 80 71 be c3 bc 7b bd
       -0.21317747 -0.18117706 -0.23584028 -0.061459314
0001c0 5b 17 4e bb 23 70 f7 be 31 fd 1b be fd a4 2c bd
       -0.0031447026 -0.4832774 -0.15233304 -0.042149533
0001d0 d8 3f 1c bd ba 76 12 be c4 5f 04 3e b2 42 09 be
       -0.038146824 -0.14303103 0.12927157 -0.13404348
0001e0 32 7c 75 be 88 03 01 3d 6d 0e 4c 3c dd 54 c6 3e
       -0.23973158 0.03149751 0.012454611 0.3873662
0001f0 63 57 de bd 77 63 68 be 09 31 33 3d 30 5c ae 3d
       -0.108565114 -0.22694193 0.043747935 0.08513677
000200 de 75 e8 be 82 f6 e8 bd 51 80 13 be 53 44 26 be
       -0.45402426 -0.11375143 -0.14404418 -0.16237001
000210 fa d0 84 bd 1e f2 ee bd ae a4 19 be 92 29 2a 3e
       -0.064851716 -0.11667274 -0.15004227 0.1661742
000220 2b 86 1a 3e 73 cf 0b 3e dc 02 b4 3b 21 41 1e be
       0.15090244 0.13653354 0.005493505 -0.15454532
000230 a7 03 3a 3e 8d dc ec 3d e2 30 a6 be 27 e8 02 bd
       0.18165456 0.11565504 -0.3245917 -0.03195968
000240 3f 69 08 bf 09 e1 5b bd 58 fd 5a 3d ac 60 99 bc
       -0.5328559 -0.053681407 0.053464264 -0.018722855
000250 46 c6 54 be 79 56 aa bd f2 76 54 be d5 77 a2 be
       -0.2077876 -0.083172746 -0.20748499 -0.3173205
000260 bf 90 e2 be d8 61 1a be 26 fd 38 3e a3 ea 01 3e
       -0.44251058 -0.15076387 0.18065318 0.12687163
000270 04 37 8d be c5 24 da bc 60 9b 58 be d7 6e 1f be
       -0.27581036 -0.026628861 -0.21153021 -0.15569626
000280 d7 47 58 be a4 10 05 be 7c 96 05 be b6 5e e3 3c
       -0.21121155 -0.12994629 -0.13045686 0.027755123
000290 b4 58 8c 3d 22 a6 15 3d 43 0d 5c bd fc 95 c3 bd
       0.06852856 0.03653539 -0.053723585 -0.095500916
0002a0 3e e0 4a 3e 1a a4 b1 be eb ff 3e be 7a 16 ab bc
       0.19812104 -0.34695512 -0.18652312 -0.020884741
0002b0 a3 22 e3 bd d9 12 78 be 7d 5c 8d bc de 4b 99 be
       -0.11090591 -0.2422594 -0.017256016 -0.29940695
0002c0 a4 46 42 3d ff 29 ad be 8f 31 b7 bd 4f a1 a7 bd
       0.04743065 -0.33821103 -0.089449994 -0.08185064
0002d0 5a ce d1 be 00 c3 e6 bc 65 39 87 bd 69 14 d1 bd
       -0.40977746 -0.028169155 -0.06602744 -0.10208971
0002e0 3e 1e 8c be 72 ee 9d bd 2c 28 71 3e 79 6e 9e 3d
       -0.27366823 -0.077114955 0.2355048 0.07735915
0002f0 aa 2a ef bd 98 0d fe bd 1a 6c 0c 3e 60 d3 34 be
       -0.116780594 -0.124049366 0.13713112 -0.17658758
000300 e0 8e a8 3b 45 b2 bf bd 34 74 3c 3d 50 84 2e bd
       0.005143985 -0.09360174 0.046009257 -0.04260665
000310 9e 3e e8 3d 1f b9 e7 3d c9 a3 31 bd 5e 58 43 3c
       0.11340068 0.11314606 -0.04336909 0.011922924
000320 43 83 12 bd a3 1a 14 bd 65 69 26 bd af e1 5c 3d
       -0.035769712 -0.036158215 -0.040627856 0.053926166
000330 1e 32 92 bd ed ce 5e 3e 68 76 6c bc ef 1a 05 bc
       -0.07138465 0.21758623 -0.014432527 -0.008124097
000340 c3 c4 0c bd 03 d9 72 3c 20 b0 a4 3d 49 4a 48 3c
       -0.034367334 0.014822247 0.08041406 0.012224742
000350 fd e2 2b 3e fb 6a 38 bc 74 df 5d 3e af 10 38 3d
       0.16785808 -0.011255975 0.21667272 0.044937786
000360 91 dd 7d 3e b6 59 a7 3d 24 b7 87 3d 73 27 ca bd
       0.24791552 0.08171408 0.06626728 -0.098708056
000370 55 ac a5 3e 1a f8 00 bd e7 e6 38 bd df 6e ec 3c
       0.3235804 -0.031486608 -0.04514208 0.028861461
000380 59 c8 cc bc 3a 68 a8 3d 03 5a 9d bd 9c 6a 39 3c
       -0.024997877 0.08223005 -0.07683184 0.011316922
000390 d5 8f 8b bd bc 0b 10 3e 22 bf 61 be bc ea 58 bd
       -0.06814543 0.14066976 -0.22045568 -0.052958235
0003a0 58 23 e7 bd 91 af dc bd 0e 2b 81 be 31 ba 33 bd
       -0.11286038 -0.10775674 -0.2522816 -0.043878738
0003b0 1b 04 d7 bd d9 f8 2b 3d d0 51 36 3d 5e f9 37 3c
       -0.1049883 0.041985366 0.044511616 0.011228887
0003c0 c2 c3 18 3e 62 05 0d 3e 2c d2 2d be ef e4 8f 3e
       0.14918426 0.13771585 -0.16974705 0.2810435
0003d0 95 2f e3 3c 59 8d 5c be f4 1c 9c bd aa 86 88 bc
       0.02773265 -0.21538295 -0.0762271 -0.016665775
0003e0 60 02 75 bd b9 84 b2 3c d7 80 14 bd d7 d3 30 3e
       -0.059816718 0.021791803 -0.036255684 0.1726831
0003f0 aa 79 c4 bd 16 f5 06 bd 3b a2 f4 bd f0 a0 63 bd
       -0.09593518 -0.032948576 -0.119450055 -0.055573404

fc2.bias f4 [128]
000000 77 f6 65 3d f8 b6 a2 3d 37 6c 81 3d 58 39 70 bd
       0.05614325 0.07945055 0.063194685 -0.058648437
000010 66 28 b8 3d 49 c2 fc 3d 85 4d ce 3d 5d d8 72 bd
       0.089920804 0.123417445 0.100733794 -0.05928837
000020 16 6e 22 bd ed 5f 0d 3e dc 20 58 bb 3e ae d2 bd
       -0.039655767 0.13806124 -0.003297857 -0.1028714
000030 f1 d3 82 3b f1 15 ce bd c2 92 79 3c c3 fb ff bd
       0.0039925505 -0.10062779 0.015232744 -0.124991916
000040 49 14 45 3c 53 54 2b 3c 9d 4e cd 3d bc b3 96 3c
       0.012028762 0.010457116 0.1002476 0.01839625
000050 a7 2d 48 bd 98 2a 92 3d 77 59 87 bd 46 f4 41 bd
       -0.048871662 0.0713703 -0.06608861 -0.047352098
000060 e2 0b a1 bd 77 b3 0f bd 42 6f d3 3c 25 08 b2 3d
       -0.078635946 -0.03508326 0.025809888 0.0869296
000070 eb b1 11 3e 55 28 bf 3c 40 6d 8b bc d7 a7 64 3c
       0.14228027 0.023334661 -0.017019868 0.013956032
000080 aa 6d 14 be 5c e2 e9 3d e5 17 c6 3c 15 31 3c 3d
       -0.14494959 0.11420128 0.024181316 0.045945246
000090 aa 1f 89 bb d2 13 bb 3c 5f 27 9f bd 39 fe e4 bd
       -0.004184683 0.0228366 -0.07771181 -0.111813016
0000a0 80 83 cf 3d cf 3c a3 3d c7 de 89 3d 93 14 21 3d
       0.101325035 0.07970583 0.067319445 0.03932626
0000b0 57 3e af bd d0 28 9f 3d 59 11 b0 bd 34 ab 0c be
       -0.08556812 0.07771456 -0.08597059 -0.13737184
0000c0 e2 ad e6 bd b0 0d 0e be a9 64 0f 3e 63 d5 cc bd
       -0.11263634 -0.13872409 0.14003243 -0.10001638
0000d0 7f 27 d0 3d 0d 6c 92 bd ec 13 8e bc 01 db 73 3d
       0.10163783 -0.07149515 -0.017343484 0.05953503
0000e0 ef 29 59 bd bc ea 0d 3c c2 b5 0b 3d d4 bf 00 bd
       -0.053018507 0.008661922 0.034108885 -0.03143294
0000f0 37 37 a6 bc aa cb 03 3e 58 4e aa 3d 31 91 bb 3d
       -0.02029 0.1287066 0.08315724 0.091585524
000100 04 17 07 be a5 a4 be 3c 9e a2 98 bd f0 7e e2 bd
       -0.13192374 0.023271868 -0.07452892 -0.11059368
000110 87 2e 60 bd 68 d4 47 3d 17 88 f6 bd c1 f0 94 3d
       -0.054731872 0.04878655 -0.12037676 0.07272483
000120 ea 49 86 bd d4 0a c4 3d cd 7b 3d 3c 0e 09 24 be
       -0.06557067 0.09572378 0.011565161 -0.16019079
000130 d5 87 bb 3d 71 1c 35 3d a4 55 01 3c 20 92 09 be
       0.09156767 0.044216577 0.0078939535 -0.13434649
000140 3a eb 1d be 58 ed 29 3e dd 87 79 bd 9b ec 36 3d
       -0.15421763 0.16594446 -0.060920585 0.04465924
000150 04 2e 2b 3d 11 bf 64 3d c1 89 bb 3c d0 d5 a5 3b
       0.04179193 0.055846278 0.022892835 0.005060889
000160 70 5f 94 bd 8e 47 a9 3a 3d b4 cb bb 45 46 fd 3d
       -0.07244766 0.0012915002 -0.0062165544 0.123669185
000170 2f d3 c0 3d ff 18 89 3a 29 fd c9 bc 0d 60 18 be
       0.0941528 0.001045972 -0.024656849 -0.1488039
000180 b0 c3 9e bd ec c8 9d 3d 9d 3a 99 3d c9 7a 2c be
       -0.07752168 0.077043384 0.07481883 -0.16843714
000190 f4 3f 14 be cf 26 c5 3c c9 2e 8d 3d 27 79 a7 bd
       -0.14477521 0.024066357 0.06893689 -0.08177405
0001a0 6f 7b 2f b9 6a a4 ca 3d 2a 5c cd 3d 1a 3e 86 3c
       -0.00016735283 0.09894641 0.100273445 0.016387034
0001b0 44 55 6a 3c c4 22 90 bc d9 34 84 bc 83 bc 3e bd
       0.0143025555 -0.017594703 -0.016138481 -0.046566498
0001c0 80 4d 44 bd 12 ca 03 3e 90 3e 9f 3c cd 9e 42 3e
       -0.047925472 0.12870052 0.019439012 0.1900589
0001d0 fb 21 c2 bd b7 58 40 3d 65 36 12 3e 9a 44 24 3e
       -0.094791375 0.046959605 0.14278562 0.16041794
0001e0 75 4c 60 3c 14 c9 76 bd f6 2a a2 3d df c1 df bd
       0.013690104 -0.060250357 0.079183504 -0.1092565
0001f0 4d 43 8e bd 0b 7d ba bd 88 d2 d8 ba 3f 21 2c bc
       -0.0694643 -0.09105881 -0.0016542235 -0.010505973

fc3.weight f4 [64, 128]
000000 cd 47 83 3e a0 f4 55 be 47 d7 0f 3e 84 3a 40 bd
       0.25640717 -0.20894098 0.14046966 -0.046930805
000010 80 d0 a2 bc d4 b0 bb be 13 60 93 be 21 64 00 be
       -0.019874811 -0.36658347 -0.28784236 -0.12538196
000020 a0 1f f5 3e f4 bb 9e 3d 88 af 3d 3c 28 8a 10 bd
       0.4787569 0.07750693 0.011577494 -0.035288006
000030 e7 df b5 bd 4c a4 98 bd 55 d9 50 bc b5 1f d0 3b
       -0.088805966 -0.07453212 -0.0127471285 0.006351436
000040 c3 5c 69 3d c7 ab 54 be 50 d2 59 bd 0a 9c c2 3c
       0.05697323 -0.20768653 -0.053179085 0.023756046
000050 60 b8 32 be 72 ac 7e be 9f 6d 02 be dd 81 ba ba
       -0.17453146 -0.2487047 -0.1273713 -0.0014229376
000060 22 ba f2 bc 1c 1d 27 3e 08 85 38 be bb 03 d6 bc
       -0.02962977 0.16319698 -0.18019497 -0.026124826
000070 bc b8 f2 3b 77 d7 6d 3d 42 f1 b6 bc 04 fb 29 3e
       0.007407276 0.05806681 -0.022331838 0.16599661
000080 75 c8 54 3d 12 51 59 be 74 68 2d 3d 9d 26 09 bd
       0.051948983 -0.21222332 0.042335942 -0.03348409
000090 74 bc 89 be 65 46 b2 bd c3 7f d7 3d 4d 53 96 3d
       -0.2690159 -0.08704833 0.105224155 0.07340107
0000a0 ef c7 8c be 6d 9d a1 3c f2 89 b3 3c 14 8a 93 be
       -0.27496287 0.019728387 0.021916363 -0.28816283
0000b0 81 f6 3c 3e 3d e0 79 3d 03 1d a4 be 99 bc 7d bd
       0.18453409 0.061004866 -0.32053384 -0.06194744
0000c0 97 8a d1 bd 76 64 13 3d 91 ad 22 bd af f1 0f 3d
       -0.10231512 0.03598448 -0.039716307 0.035142597
0000d0 d1 ec 4c be b8 2a 05 bc e9 fa 11 3e f8 cc 77 bd
       -0.20012213 -0.008127861 0.14255871 -0.060498208
0000e0 86 db c2 3d 9f c7 40 be b6 d7 1f be c7 96 4f 3d
       0.09514527 -0.1882615 -0.15609631 0.0506809
0000f0 94 ef f2 3d ce c9 09 3e da 45 fa bd 42 7a 2b be
       0.11862102 0.13455889 -0.122203544 -0.16745856
000100 79 b3 7a bd c6 87 2e 3d 70 02 a2 3c 02 be cc 3d
       -0.061206315 0.042609952 0.019776553 0.099971786
000110 a5 f7 26 3d 60 1c 8c be 27 3a c8 bd 8e cb 55 bd
       0.040763516 -0.27365398 -0.09776717 -0.052196078
000120 ec 59 a1 3d 66 e0 c1 bd 8b 39 50 3e c3 74 cf bd
       0.07878479 -0.09466629 0.20334451 -0.101296924
000130 1d cd 74 3e 93 57 9f bd f2 cb e3 3d 92 f5 07 3e
       0.2390637 -0.07780375 0.11122884 0.13277271
000140 d6 2a a5 ba e7 e2 9e 3d b0 63 83 be 6a 93 80 3d
       -0.0012601267 0.07758122 -0.25661993 0.06278117
000150 7c 1a 8d be de 0b 71 be e1 53 a0 3e 4b 53 a0 3e
       -0.27559268 -0.23539683 0.31313995 0.31313547
000160 01 af 4d be 89 f4 7a be 19 7c 59 bd ef 8c 1d bc
       -0.2008629 -0.24507345 -0.053096864 -0.009616121
000170 a0 f6 03 3e 00 17 28 be 02 f5 0c be de c2 d6 3d
       0.12887049 -0.16415024 -0.13765338 0.10486387
000180 7f 5b 50 3e 69 08 f7 3d 93 a1 ce bd 84 2c c8 bd
       0.20347403 0.12062151 -0.100894116 -0.09774116
000190 35 a7 29 be d2 3d fb bd f7 2e 17 3d ff f5 1b be
       -0.1656769 -0.12267651 0.036910024 -0.15230559
0001a0 22 7e 24 be d2 f8 46 bd 1f 51 80 3e 05 15 0a be
       -0.16063741 -0.048577137 0.2506189 -0.13484581
0001b0 f8 44 2e bd dc 43 49 bc 74 91 27 3e 53 0c 9b bd
       -0.042546242 -0.012284245 0.1636408 -0.0757071
0001c0 7b 90 02 be d1 d3 9b bd 2c b4 54 be 99 a3 f7 3d
       -0.12750427 -0.0760876 -0.20771855 0.12091751
0001d0 1e 8e 0b be 79 c6 0d bc 6e ac c0 3c 2d 79 72 be
       -0.13628432 -0.008653277 0.02351972 -0.23679037
0001e0 9d 1c 74 bd 21 76 08 3e 91 92 29 3e a3 23 9f bc
       -0.0595976 0.13326313 0.16559817 -0.019426173
0001f0 cb 9a f4 3c 7e 3a 64 bd e1 0f 01 bc 02 7b 95 be
       0.029858967 -0.055719845 -0.007877321 -0.2919541
000200 63 05 25 ba d5 01 c3 3c a9 b8 5f be a1 a6 f2 be
       -0.0006295053 0.023804585 -0.21847786 -0.47392753
000210 81 93 06 be 4b 2e 1c 3e e7 10 f5 bd 39 27 b5 be
       -0.13142206 0.15252034 -0.119661145 -0.35381487
000220 cb 7b 4e 3e 1d ee f9 3d 29 43 13 3d 48 98 a8 3d
       0.20164411 0.1220362 0.03595272 0.0823217
000230 4f 0e 18 3e e0 1e a8 be 23 6b c7 be 5a 94 c9 3c
       0.14849208 -0.32836056 -0.38948926 0.024606872
000240 69 e8 ac bd 9d 9c 85 3c 88 33 76 3e 7f 00 d3 3d
       -0.08442766 0.01631003 0.24043095 0.10302829
000250 18 74 9a 3d ab 57 1e 3e 70 c7 ce 3e a9 39 ba be
       0.075416744 0.1546313 0.40386534 -0.36372116
000260 36 71 2e be b6 20 3f bd cb 89 b4 bc 60 dc f1 3d
       -0.17035374 -0.046662055 -0.022038361 0.11809611
000270 39 a9 0a 3c cd b1 c4 3d 03 e9 56 be 42 d4 79 3d
       0.008463197 0.09604225 -0.20987324 0.06099344
000280 1a d3 ed 3d 80 b2 02 bd f6 f5 80 3e 55 52 19 3d
       0.1161253 -0.031908512 0.25187653 0.037432034
000290 20 86 51 3d 08 7d 29 3e 5c 62 24 bc fc 3c 1c 3d
       0.051153302 0.16551602 -0.010033216 0.038144097
0002a0 13 64 20 3c 46 79 26 3e e3 36 00 3e a9 04 9d 3c
       0.009789485 0.162572 0.12520938 0.019167261
0002b0 7b 1a 40 bd 39 cf 26 bd 32 aa 63 3d 81 53 a1 39
       -0.046900254 -0.040724967 0.055582233 0.00030770528
0002c0 ef 98 14 3e 76 09 cc 3b 9f 1a 89 be d1 f3 26 3c
       0.14511465 0.006226714 -0.26778123 0.010189966
0002d0 ba 4c 82 3d 56 50 9c bb 8e 38 23 3e 09 17 ed 3d
       0.06362291 -0.004770319 0.15939543 0.11576659
0002e0 66 82 d6 bc e3 03 14 be cf 0e 3b be 81 9e 37 3c
       -0.026185226 -0.14454608 -0.18267368 0.011207224
0002f0 6d ab d9 3c 41 83 34 bc 43 64 9f bd 0b d0 00 3c
       0.026571 -0.0110176215 -0.07782795 0.007862101
000300 24 3a b9 3c 25 39 cf 3d 5e d7 13 3e 71 32 14 be
       0.022610731 0.10118321 0.14437625 -0.14472367
000310 ab 5f fe 3c 05 93 73 bd 6d 8e 3c bd 51 d9 4a 3d
       0.031051477 -0.05946638 -0.046034265 0.049523655
000320 1d b3 d3 bd 3e ec 15 3d ce 56 9e ba e8 19 90 bd
       -0.103368975 0.03660225 -0.0012080313 -0.07036191
000330 ea 39 bb bc ac 09 be 3d 6d 9c 84 3d 3e 0f ac bd
       -0.022854764 0.092791885 0.06475148 -0.08401345
000340 e4 1c ef bd 7b e9 d7 bc 7e e5 7f bc 4b a9 04 3e
       -0.11675432 -0.02635645 -0.01561868 0.12955205
000350 49 64 99 be 2f 93 3f 3e 84 60 83 be 5c 66 88 be
       -0.29959324 0.1870849 -0.25659573 -0.26640594
000360 fc d9 5c 3d 56 b6 21 3e 14 90 ab be ce b3 43 be
       0.053918824 0.15792212 -0.3350836 -0.19111559
000370 b0 08 0c be 02 74 a5 3d 6c 26 02 3d 5e 87 c7 bd
       -0.13675189 0.08078767 0.031774923 -0.09742616
000380 97 ef 36 be 27 51 9f be 9b ed bd bd 99 bc 4c be
       -0.17864834 -0.31116602 -0.09273835 -0.1999382
000390 a7 cb d4 3b 55 4b 26 be 07 1e 6c bd 9c 95 28 bd
       0.006494004 -0.16239674 -0.057645824 -0.041158304
0003a0 42 6b d7 bc 86 57 0e be 13 4a 49 3e d5 9c b8 3d
       -0.026296262 -0.13900575 0.19657163 0.09014288
0003b0 4e ee f6 bc 06 3e 68 3d e7 ba 96 3c 44 8f 22 be
       -0.03014293 0.056699775 0.018399669 -0.15874964
0003c0 d2 4f 05 3e f9 82 15 bd 2e 30 06 bd f1 df ae 3d
       0.1301873 -0.03650186 -0.03276079 0.08538807
0003d0 63 d2 af be a2 36 de 3c e9 80 03 3e 04 38 aa 3d
       -0.343402 0.02712566 0.12842144 0.083114654
0003e0 de 0c 50 bd a0 7c a0 bd 38 96 22 3c 52 7c be 3d
       -0.05079352 -0.0783627 0.00992351 0.09301056
0003f0 2b 9b 84 3d 81 6e e8 3a 72 f7 15 be 74 46 d9 bd
       0.064749084 0.0017733128 -0.14645174 -0.10609141

fc3.bias f4 [64]
000000 2e 77 4b bd ac 56 2c 3e 91 75 66 3e fe 68 00 bd
       -0.049674205 0.16829938 0.22505786 -0.03135013
000010 98 3c 5f 3d 45 14 9f bd 64 5c a0 3d af d3 1b be
       0.054501146 -0.07767538 0.07830122 -0.1521747
000020 e0 3a 80 3d 61 cc a5 3e d8 60 e2 bb f0 70 a0 3e
       0.062612295 0.3238249 -0.0069085173 0.31336164
000030 97 63 f2 3d d9 6a d0 bd 41 ff b5 bd 45 88 a5 b8
       0.118354015 -0.101766296 -0.088865764 -7.893195e-05
000040 88 d2 9c 3d 65 90 56 3d be 5e e6 bd 83 92 6d 3e
       0.07657343 0.0523838 -0.112485394 0.23200421
000050 8f c8 46 3d 0f 8b 8c 3d 0e 6f b1 3d 1f f6 6c 3e
       0.04853111 0.06862461 0.0866376 0.23140763
000060 d4 8c 39 bd ff ac d1 bd e9 6e 96 bd b5 35 87 3d
       -0.04530032 -0.102380745 -0.07345373 0.06602041
000070 d0 06 28 bd af fe 3b 3e db 5b 94 3e 88 03 c7 bd
       -0.041022122 0.18358873 0.2897633 -0.097174704
000080 9a 35 ae bd 86 45 fb bd 28 6a cb bd 47 95 6b bc
       -0.085063174 -0.1226912 -0.09932357 -0.014378852
000090 11 2b 03 3d e6 fe 33 bd 1c a5 45 bb cb 62 07 be
       0.032023493 -0.043944262 -0.0030158227 -0.1322128
0000a0 f4 2c a7 bd d7 df 05 3e 41 7d 33 bd 1b 15 6d 3d
       -0.08162871 0.1307367 -0.043820623 0.057881456
0000b0 de 7c 24 bd 26 8d 0c 3e 48 69 2d bd 87 c8 fb 3b
       -0.040158145 0.13725719 -0.042336732 0.007683817
0000c0 c6 fb ce bb 87 0b 8d 3e f4 ac 39 3d 99 6a f2 bd
       -0.006316635 0.27547857 0.045330957 -0.11836738
0000d0 80 30 b2 3e 0e 78 7e bd 89 bd 0e 3d 52 ca 0e be
       0.34802628 -0.06212621 0.034848724 -0.13944367
0000e0 3e 32 a6 3d 5e 90 80 bd 61 38 60 bd c7 1d 0a 3e
       0.08115052 -0.06277536 -0.054741267 0.13487922
0000f0 2c c9 a4 bd c0 72 76 3e 49 ee 16 bd 86 27 98 3d
       -0.08046183 0.24067211 -0.03684834 0.074294135

fc4.weight f4 [4, 64]
000000 54 20 61 3e 58 9a c0 bd b6 7e fe 3d 27 04 5b 3d
       0.21984988 -0.09404439 0.12426512 0.053470757
000010 3b 6d bc 3d d1 cc b0 bc 07 88 65 3e cf 67 6b be
       0.092005216 -0.02158204 0.22415172 -0.22988819
000020 40 a5 09 3e 20 17 30 3e 33 cd ab bd 7e ba 09 3e
       0.13441944 0.17196321 -0.08388748 0.13450047
000030 86 75 19 bf af e0 a1 3d 38 4b bd ba 72 bb eb 3c
       -0.5994495 0.07904183 -0.0014441973 0.028775904
000040 df 00 ac bd 15 4e e2 3d d4 e3 5d be 17 19 d9 3d
       -0.08398604 0.11050049 -0.21668941 0.10600489
000050 27 12 b3 3d 93 17 8c 3e 5b 6f 11 bf 0c e0 bc 3d
       0.08743697 0.27361736 -0.5681054 0.09222421
000060 4e 22 92 3e f6 3d 05 bd 51 6b 8b be 28 e0 9d 3e
       0.28541797 -0.032529794 -0.27230313 0.3083508
000070 c2 d9 23 be 8d f8 cb 3e 9c 56 01 3e e2 d4 c9 bc
       -0.16001037 0.39838067 0.12630695 -0.024637643
000080 a5 2d 19 be f9 2a 1e bd bb d8 95 bd 96 b6 39 3e
       -0.14958818 -0.0386152 -0.07316729 0.18136057
000090 ec 63 52 3d c8 94 21 3e 8c 31 1c bc 2a fb aa be
       0.051364824 0.15779412 -0.009533297 -0.33394748
0000a0 92 36 21 bd 8e 9b 0f 3e 03 c0 ad bc 8b cc 0d 3e
       -0.039358683 0.14024183 -0.021209722 0.13847558
0000b0 83 7d 0b 3d 01 ff 2a 3e 06 b3 a3 be 3d eb 4d bd
       0.034055244 0.16698839 -0.31972522 -0.05027317
0000c0 bf bf 06 3d a2 d4 26 3e 91 44 30 be aa f0 96 3d
       0.032897707 0.1629205 -0.17213656 0.07370122
0000d0 a1 93 04 3e 24 fc ae 3d a2 6d b8 be b0 8a e3 bd
       0.12946941 0.08544186 -0.36021143 -0.11110437
0000e0 5d e3 05 3b 8d 5f 54 3d 38 eb 28 3d ab 59 0b 3e
       0.0020429709 0.051848937 0.041239947 0.13608424
0000f0 f7 d0 67 3e e4 99 bd 3d 5e 09 af be d8 a8 25 be
       0.22638308 0.09257868 -0.34186834 -0.1617769
000100 20 68 b1 3e 8b f5 27 3e 79 98 e3 bc e2 49 58 bd
       0.34649754 0.16402261 -0.027782666 -0.052804835
000110 62 8c 56 3d 01 23 23 3e 7f 8d 63 3e 5c f1 95 3e
       0.052379973 0.15931322 0.22221945 0.29285705
000120 28 69 e3 3d 9e 86 00 3e 6d c1 d2 ba 7f 08 f9 3c
       0.11104041 0.12551352 -0.0016079374 0.030399559
000130 b2 4a 32 3d 40 bc 6c 3d 7b 84 60 bd ad 96 55 3e
       0.043528266 0.057796717 -0.054813843 0.2085826
000140 2a 08 f2 3d 1e e1 07 bd 29 6f 99 bd da f4 11 3e
       0.118179634 -0.033173673 -0.07491905 0.1425356
000150 df 5e 8c 3e df 16 8d 3e e6 46 0e 3e d7 62 2b 3e
       0.2741613 0.27556512 0.13894233 0.16736923
000160 12 bd 6b 3e 7f 30 80 bc e5 9f b3 be a6 e0 f3 3d
       0.23021343 -0.015648125 -0.35082927 0.11908083
000170 59 0c b1 bd 4e 08 8e 3e 8d 36 c1 3d 83 a8 b7 3d
       -0.08644933 0.2774071 0.09434233 0.08967688
000180 41 51 6e 3c 76 c7 8d bd 33 3b a5 be 0b da 8e 3d
       0.01454574 -0.0692281 -0.32271728 0.06975182
000190 31 00 b8 3d 51 23 9f 3d 9c e6 0e be 3e 90 b1 3c
       0.089844115 0.07770408 -0.13955158 0.021675225
0001a0 67 76 a2 bd 5d f2 21 3e 43 77 e7 3d 27 28 5f 3e
       -0.0793274 0.1581511 0.11302044 0.2179266
0001b0 c9 b6 98 be e3 dd a1 3d 24 c4 a3 be 21 73 dc be
       -0.29826954 0.0790365 -0.3198558 -0.43056586
0001c0 4b fd da bd 5e 5e 37 3e d1 4a 61 3c 67 26 86 3d
       -0.10692843 0.17907092 0.013750748 0.065502934
0001d0 5e 08 d4 3d 5a 30 c2 3d 0b fe 76 be 04 a5 02 3e
       0.103531584 0.094818786 -0.24120347 0.12758261
0001e0 44 0c 21 3e 39 10 15 3c 2b 39 12 bf f7 de 31 3e
       0.15727335 0.009098106 -0.5711848 0.1737021
0001f0 d0 c0 90 3c a1 41 01 3e fc 22 a2 3e 16 3f 5d 3e
       0.017670065 0.12622692 0.31667316 0.21606097
000200 e9 8f 96 3d 31 00 21 3e 9c 57 9d 3d db 06 be 3b
       0.073516674 0.1572273 0.07682726 0.005799157
000210 86 48 14 3e 60 8d 21 be 33 ef a4 3e 0b fb c7 bd
       0.1448079 -0.15776587 0.32213745 -0.097646795
000220 21 10 3c 3e c0 5c 90 3d 12 9a 7a be 6f 70 15 3e
       0.18365528 0.07048941 -0.24472836 0.14593671
000230 87 58 5c be 64 9d a2 3c c6 bc 89 bc e0 7b 07 bf
       -0.21518146 0.01985044 -0.016813647 -0.52923393
000240 0e 4a fc 3e 91 fb 64 3e 96 85 94 3e cb 1c 0f 3e
       0.4927525 0.2236159 0.29008168 0.13975827
000250 58 d5 be bd 44 76 25 3e 2a 3b 68 be 74 b6 13 3e
       -0.09318036 0.16158396 -0.2267882 0.14425069
000260 11 7a 4d bb 4f bc 00 3b 7e c7 c9 3e ca 73 f4 bd
       -0.0031353275 0.001964349 0.39410013 -0.119361475
000270 a1 c2 3b 3d 91 86 ba bd 7b da 40 3e 38 b2 bb 3e
       0.04583991 -0.09107698 0.18833344 0.36659408
000280 e7 a0 de bd 00 19 b5 3d 6c d8 60 3e bc b8 c7 be
       -0.108705334 0.08842659 0.21957558 -0.3900813
000290 0f b4 1d 3e 9c 52 86 3e c4 a6 f1 be c4 f7 ae be
       0.15400718 0.262349 -0.47197545 -0.34173405
0002a0 ef 7a 62 be 02 01 09 3d a7 11 01 3e 8d 6e 7f 3e
       -0.22117208 0.033448227 0.1260439 0.24944516
0002b0 8b cf bb bc ae 2b 0d 3e f9 df 96 3d 52 dd a2 be
       -0.022926113 0.13786194 0.07366938 -0.3180948
0002c0 b8 bb af 3d 95 3e a5 bc 9a f3 4b 3e 9b 19 af 3c
       0.085807264 -0.020171443 0.19917145 0.021374514
0002d0 cd c2 b6 3d 0b 70 9e be 5b 67 76 bd 26 a5 90 3e
       0.08923874 -0.30944857 -0.06015716 0.28250998
0002e0 90 28 8d 3d 62 43 84 3e fa 2a 6d be 5e 38 bd 3d
       0.06892502 0.2583266 -0.23160926 0.09239267
0002f0 94 e6 45 3e e5 53 77 3d d2 75 62 be 6e 5d b7 be
       0.1932624 0.060382742 -0.22115257 -0.3581347
000300 15 3f 87 3e e1 d5 26 3e 2c 9a bc 3d 2b 6d 6e be
       0.26415315 0.16292526 0.092090935 -0.23283832
000310 ca 79 68 3e 10 84 8f 3e 54 94 8f 3e c1 fe 97 bd
       0.22702709 0.28030443 0.28042853 -0.07421637
000320 61 4f 49 bd a9 46 8f 3d d9 7d d4 3e 30 81 35 3e
       -0.049147967 0.06995899 0.41502264 0.17725062
000330 10 d7 87 be 1d 4c fa bb 40 34 f7 bb c6 b5 ff 3d
       -0.26531267 -0.007638468 -0.0075440705 0.124858424
000340 15 bf 13 be 57 66 16 3e b0 42 97 be 94 73 c0 3b
       -0.14428361 0.14687477 -0.29543066 0.005873153
000350 2b 33 02 3f 0d 2e c6 3d 76 e8 47 be 7c 34 48 3e
       0.50859326 0.09676752 -0.1952227 0.19551271
000360 95 6f d3 3e d7 91 8d 3d c9 0b 08 bd 0b 93 3d 3e
       0.41296068 0.06912582 -0.033214364 0.18513124
000370 2b 5c 42 3e e7 4b a9 bc d0 c7 ff 3d 82 c0 4f bc
       0.18980472 -0.020666076 0.12489283 -0.012680175
000380 98 2a 85 be 2b 00 5a 3d 89 49 61 be b5 6f ac bd
       -0.2600906 0.053222816 -0.22000708 -0.08419744
000390 2e 74 82 be 32 05 6a 3e 5e f7 6c be 2b 1d 9f 3e
       -0.25479263 0.22853544 -0.23141238 0.3107694
0003a0 f2 60 6b be 48 dc e5 3a 97 62 aa bd 42 74 52 be
       -0.229862 0.0017536962 -0.08319586 -0.20552161
0003b0 47 98 ef be 1f bd cc 3d db be 39 3e 8a 2a 1c 3e
       -0.46795866 0.099970095 0.18139212 0.15250602
0003c0 5f fb 28 3e 55 e6 e6 3d 3e c0 4c 3d 5a 3d a3 bd
       0.1650214 0.11274401 0.049988024 -0.07970686
0003d0 ac 10 28 3e a9 9d a0 bd fb 12 ee be 8c bd 2d 3e
       0.1641261 -0.07842571 -0.46498856 0.16966838
0003e0 d7 03 30 3e 68 54 a4 3d 3d f9 a4 3e cb 9c 5b 3e
       0.17188965 0.08023912 0.32221404 0.2144653
0003f0 c8 87 f6 bd bc f4 83 3d 8a 11 7d 3e e1 89 8e be
       -0.12037617 0.06443164 0.24713722 -0.27839568

fc4.bias f4 [4]
000000 c6 8d 11 3e 23 1e e8 3d 8a b8 1f 3e a4 1f e9 3d
       0.14214239 0.11333873 0.1559774 0.11382988
